<?xml version="1.0"?>
<net name="torch_jit" version="11">
	<layers>
		<layer id="0" name="image" type="Parameter" version="opset1">
			<data shape="?,3,512,512" element_type="f32" />
			<output>
				<port id="0" precision="FP32" names="image">
					<dim>-1</dim>
					<dim>3</dim>
					<dim>512</dim>
					<dim>512</dim>
				</port>
			</output>
		</layer>
		<layer id="1" name="/Constant_408" type="Const" version="opset1">
			<data element_type="i64" shape="" offset="0" size="8" />
			<output>
				<port id="0" precision="I64" names="/Constant_408_output_0" />
			</output>
		</layer>
		<layer id="2" name="/Constant_271" type="Const" version="opset1">
			<data element_type="i64" shape="" offset="0" size="8" />
			<output>
				<port id="0" precision="I64" names="/Constant_271_output_0" />
			</output>
		</layer>
		<layer id="3" name="/Constant_30" type="Const" version="opset1">
			<data element_type="f32" shape="1, 3, 4" offset="8" size="48" />
			<output>
				<port id="0" precision="FP32" names="/Constant_30_output_0">
					<dim>1</dim>
					<dim>3</dim>
					<dim>4</dim>
				</port>
			</output>
		</layer>
		<layer id="4" name="/Constant_17" type="Const" version="opset1">
			<data element_type="i64" shape="" offset="0" size="8" />
			<output>
				<port id="0" precision="I64" names="/Constant_17_output_0" />
			</output>
		</layer>
		<layer id="5" name="Constant_141889" type="Const" version="opset1">
			<data element_type="f32" shape="1, 3, 1, 1" offset="56" size="12" />
			<rt_info>
				<attribute name="preprocessing" version="0" />
			</rt_info>
			<output>
				<port id="0" precision="FP32">
					<dim>1</dim>
					<dim>3</dim>
					<dim>1</dim>
					<dim>1</dim>
				</port>
			</output>
		</layer>
		<layer id="6" name="Subtract_45190" type="Add" version="opset1">
			<data auto_broadcast="numpy" />
			<rt_info>
				<attribute name="preprocessing" version="0" />
			</rt_info>
			<input>
				<port id="0" precision="FP32">
					<dim>-1</dim>
					<dim>3</dim>
					<dim>512</dim>
					<dim>512</dim>
				</port>
				<port id="1" precision="FP32">
					<dim>1</dim>
					<dim>3</dim>
					<dim>1</dim>
					<dim>1</dim>
				</port>
			</input>
			<output>
				<port id="2" precision="FP32">
					<dim>-1</dim>
					<dim>3</dim>
					<dim>512</dim>
					<dim>512</dim>
				</port>
			</output>
		</layer>
		<layer id="7" name="Constant_331050" type="Const" version="opset1">
			<data element_type="f32" shape="" offset="68" size="4" />
			<output>
				<port id="0" precision="FP32" />
			</output>
		</layer>
		<layer id="8" name="Constant_331051" type="Const" version="opset1">
			<data element_type="f32" shape="" offset="72" size="4" />
			<output>
				<port id="0" precision="FP32" />
			</output>
		</layer>
		<layer id="9" name="Constant_331052" type="Const" version="opset1">
			<data element_type="f32" shape="" offset="68" size="4" />
			<output>
				<port id="0" precision="FP32" />
			</output>
		</layer>
		<layer id="10" name="Constant_331053" type="Const" version="opset1">
			<data element_type="f32" shape="" offset="72" size="4" />
			<output>
				<port id="0" precision="FP32" />
			</output>
		</layer>
		<layer id="11" name="Subtract_45190/fq_output_0" type="FakeQuantize" version="opset1">
			<data levels="256" auto_broadcast="numpy" />
			<input>
				<port id="0" precision="FP32">
					<dim>-1</dim>
					<dim>3</dim>
					<dim>512</dim>
					<dim>512</dim>
				</port>
				<port id="1" precision="FP32" />
				<port id="2" precision="FP32" />
				<port id="3" precision="FP32" />
				<port id="4" precision="FP32" />
			</input>
			<output>
				<port id="5" precision="FP32">
					<dim>-1</dim>
					<dim>3</dim>
					<dim>512</dim>
					<dim>512</dim>
				</port>
			</output>
		</layer>
		<layer id="12" name="/backbone/init_block/Constant_2" type="Const" version="opset1">
			<data element_type="i64" shape="" offset="76" size="8" />
			<output>
				<port id="0" precision="I64" names="/backbone/init_block/Constant_2_output_0" />
			</output>
		</layer>
		<layer id="13" name="/backbone/init_block/Shape" type="ShapeOf" version="opset3">
			<data output_type="i64" />
			<input>
				<port id="0" precision="FP32">
					<dim>-1</dim>
					<dim>3</dim>
					<dim>512</dim>
					<dim>512</dim>
				</port>
			</input>
			<output>
				<port id="1" precision="I64" names="/Shape_output_0,/backbone/init_block/Shape_1_output_0,/backbone/init_block/Shape_output_0">
					<dim>4</dim>
				</port>
			</output>
		</layer>
		<layer id="14" name="/backbone/init_block/Constant" type="Const" version="opset1">
			<data element_type="i64" shape="" offset="84" size="8" />
			<output>
				<port id="0" precision="I64" names="/backbone/init_block/Constant_output_0" />
			</output>
		</layer>
		<layer id="15" name="Constant_283" type="Const" version="opset1">
			<data element_type="i64" shape="" offset="0" size="8" />
			<output>
				<port id="0" precision="I64" />
			</output>
		</layer>
		<layer id="16" name="/backbone/init_block/Gather" type="Gather" version="opset8">
			<data batch_dims="0" />
			<input>
				<port id="0" precision="I64">
					<dim>4</dim>
				</port>
				<port id="1" precision="I64" />
				<port id="2" precision="I64" />
			</input>
			<output>
				<port id="3" precision="I64" names="/backbone/init_block/Gather_output_0" />
			</output>
		</layer>
		<layer id="17" name="/backbone/init_block/Sub" type="Subtract" version="opset1">
			<data auto_broadcast="numpy" />
			<input>
				<port id="0" precision="I64" />
				<port id="1" precision="I64" />
			</input>
			<output>
				<port id="2" precision="I64" names="/backbone/init_block/Sub_output_0" />
			</output>
		</layer>
		<layer id="18" name="/backbone/init_block/Constant_4" type="Const" version="opset1">
			<data element_type="i64" shape="" offset="84" size="8" />
			<output>
				<port id="0" precision="I64" names="/backbone/init_block/Constant_4_output_0" />
			</output>
		</layer>
		<layer id="19" name="/backbone/init_block/Div" type="Divide" version="opset1">
			<data auto_broadcast="numpy" m_pythondiv="true" />
			<input>
				<port id="0" precision="I64" />
				<port id="1" precision="I64" />
			</input>
			<output>
				<port id="2" precision="I64" names="/backbone/init_block/Cast_1_output_0,/backbone/init_block/Cast_output_0,/backbone/init_block/Div_output_0" />
			</output>
		</layer>
		<layer id="20" name="Constant_312" type="Const" version="opset1">
			<data element_type="i64" shape="1" offset="0" size="8" />
			<output>
				<port id="0" precision="I64">
					<dim>1</dim>
				</port>
			</output>
		</layer>
		<layer id="21" name="/backbone/init_block/Unsqueeze_4" type="Unsqueeze" version="opset1">
			<input>
				<port id="0" precision="I64" />
				<port id="1" precision="I64">
					<dim>1</dim>
				</port>
			</input>
			<output>
				<port id="2" precision="I64" names="/backbone/init_block/Unsqueeze_4_output_0">
					<dim>1</dim>
				</port>
			</output>
		</layer>
		<layer id="22" name="/backbone/init_block/Sub_2" type="Subtract" version="opset1">
			<data auto_broadcast="numpy" />
			<input>
				<port id="0" precision="I64" />
				<port id="1" precision="I64" />
			</input>
			<output>
				<port id="2" precision="I64" names="/backbone/init_block/Sub_2_output_0" />
			</output>
		</layer>
		<layer id="23" name="Constant_314" type="Const" version="opset1">
			<data element_type="i64" shape="1" offset="0" size="8" />
			<output>
				<port id="0" precision="I64">
					<dim>1</dim>
				</port>
			</output>
		</layer>
		<layer id="24" name="/backbone/init_block/Unsqueeze_5" type="Unsqueeze" version="opset1">
			<input>
				<port id="0" precision="I64" />
				<port id="1" precision="I64">
					<dim>1</dim>
				</port>
			</input>
			<output>
				<port id="2" precision="I64" names="/backbone/init_block/Unsqueeze_5_output_0">
					<dim>1</dim>
				</port>
			</output>
		</layer>
		<layer id="25" name="/backbone/init_block/Constant_3" type="Const" version="opset1">
			<data element_type="i64" shape="" offset="76" size="8" />
			<output>
				<port id="0" precision="I64" names="/backbone/init_block/Constant_3_output_0" />
			</output>
		</layer>
		<layer id="26" name="/backbone/init_block/Constant_1" type="Const" version="opset1">
			<data element_type="i64" shape="" offset="92" size="8" />
			<output>
				<port id="0" precision="I64" names="/backbone/init_block/Constant_1_output_0" />
			</output>
		</layer>
		<layer id="27" name="Constant_287" type="Const" version="opset1">
			<data element_type="i64" shape="" offset="0" size="8" />
			<output>
				<port id="0" precision="I64" />
			</output>
		</layer>
		<layer id="28" name="/backbone/init_block/Gather_1" type="Gather" version="opset8">
			<data batch_dims="0" />
			<input>
				<port id="0" precision="I64">
					<dim>4</dim>
				</port>
				<port id="1" precision="I64" />
				<port id="2" precision="I64" />
			</input>
			<output>
				<port id="3" precision="I64" names="/backbone/init_block/Gather_1_output_0" />
			</output>
		</layer>
		<layer id="29" name="/backbone/init_block/Sub_1" type="Subtract" version="opset1">
			<data auto_broadcast="numpy" />
			<input>
				<port id="0" precision="I64" />
				<port id="1" precision="I64" />
			</input>
			<output>
				<port id="2" precision="I64" names="/backbone/init_block/Sub_1_output_0" />
			</output>
		</layer>
		<layer id="30" name="/backbone/init_block/Constant_5" type="Const" version="opset1">
			<data element_type="i64" shape="" offset="84" size="8" />
			<output>
				<port id="0" precision="I64" names="/backbone/init_block/Constant_5_output_0" />
			</output>
		</layer>
		<layer id="31" name="/backbone/init_block/Div_1" type="Divide" version="opset1">
			<data auto_broadcast="numpy" m_pythondiv="true" />
			<input>
				<port id="0" precision="I64" />
				<port id="1" precision="I64" />
			</input>
			<output>
				<port id="2" precision="I64" names="/backbone/init_block/Cast_2_output_0,/backbone/init_block/Cast_3_output_0,/backbone/init_block/Div_1_output_0" />
			</output>
		</layer>
		<layer id="32" name="Constant_316" type="Const" version="opset1">
			<data element_type="i64" shape="1" offset="0" size="8" />
			<output>
				<port id="0" precision="I64">
					<dim>1</dim>
				</port>
			</output>
		</layer>
		<layer id="33" name="/backbone/init_block/Unsqueeze_6" type="Unsqueeze" version="opset1">
			<input>
				<port id="0" precision="I64" />
				<port id="1" precision="I64">
					<dim>1</dim>
				</port>
			</input>
			<output>
				<port id="2" precision="I64" names="/backbone/init_block/Unsqueeze_6_output_0">
					<dim>1</dim>
				</port>
			</output>
		</layer>
		<layer id="34" name="/backbone/init_block/Sub_3" type="Subtract" version="opset1">
			<data auto_broadcast="numpy" />
			<input>
				<port id="0" precision="I64" />
				<port id="1" precision="I64" />
			</input>
			<output>
				<port id="2" precision="I64" names="/backbone/init_block/Sub_3_output_0" />
			</output>
		</layer>
		<layer id="35" name="Constant_318" type="Const" version="opset1">
			<data element_type="i64" shape="1" offset="0" size="8" />
			<output>
				<port id="0" precision="I64">
					<dim>1</dim>
				</port>
			</output>
		</layer>
		<layer id="36" name="/backbone/init_block/Unsqueeze_7" type="Unsqueeze" version="opset1">
			<input>
				<port id="0" precision="I64" />
				<port id="1" precision="I64">
					<dim>1</dim>
				</port>
			</input>
			<output>
				<port id="2" precision="I64" names="/backbone/init_block/Unsqueeze_7_output_0">
					<dim>1</dim>
				</port>
			</output>
		</layer>
		<layer id="37" name="/backbone/init_block/Concat_1" type="Concat" version="opset1">
			<data axis="0" />
			<input>
				<port id="0" precision="I64">
					<dim>1</dim>
				</port>
				<port id="1" precision="I64">
					<dim>1</dim>
				</port>
				<port id="2" precision="I64">
					<dim>1</dim>
				</port>
				<port id="3" precision="I64">
					<dim>1</dim>
				</port>
			</input>
			<output>
				<port id="4" precision="I64" names="/backbone/init_block/Cast_4_output_0,/backbone/init_block/Concat_1_output_0">
					<dim>4</dim>
				</port>
			</output>
		</layer>
		<layer id="38" name="/backbone/init_block/ConstantOfShape" type="Const" version="opset1">
			<data element_type="i64" shape="4" offset="100" size="32" />
			<output>
				<port id="0" precision="I64" names="/backbone/init_block/ConstantOfShape_output_0">
					<dim>4</dim>
				</port>
			</output>
		</layer>
		<layer id="39" name="/backbone/init_block/Concat_2" type="Concat" version="opset1">
			<data axis="0" />
			<input>
				<port id="0" precision="I64">
					<dim>4</dim>
				</port>
				<port id="1" precision="I64">
					<dim>4</dim>
				</port>
			</input>
			<output>
				<port id="2" precision="I64" names="/backbone/init_block/Concat_2_output_0">
					<dim>8</dim>
				</port>
			</output>
		</layer>
		<layer id="40" name="/backbone/init_block/Constant_8" type="Const" version="opset1">
			<data element_type="i64" shape="2" offset="132" size="16" />
			<output>
				<port id="0" precision="I64" names="/backbone/init_block/Constant_8_output_0">
					<dim>2</dim>
				</port>
			</output>
		</layer>
		<layer id="41" name="/backbone/init_block/Reshape" type="Reshape" version="opset1">
			<data special_zero="true" />
			<input>
				<port id="0" precision="I64">
					<dim>8</dim>
				</port>
				<port id="1" precision="I64">
					<dim>2</dim>
				</port>
			</input>
			<output>
				<port id="2" precision="I64" names="/backbone/init_block/Reshape_output_0">
					<dim>4</dim>
					<dim>2</dim>
				</port>
			</output>
		</layer>
		<layer id="42" name="/backbone/init_block/Constant_10" type="Const" version="opset1">
			<data element_type="i64" shape="1" offset="148" size="8" />
			<output>
				<port id="0" precision="I64" names="/backbone/init_block/Constant_10_output_0">
					<dim>1</dim>
				</port>
			</output>
		</layer>
		<layer id="43" name="/backbone/init_block/Constant_11" type="Const" version="opset1">
			<data element_type="i64" shape="1" offset="156" size="8" />
			<output>
				<port id="0" precision="I64" names="/backbone/init_block/Constant_11_output_0">
					<dim>1</dim>
				</port>
			</output>
		</layer>
		<layer id="44" name="/backbone/init_block/Constant_12" type="Const" version="opset1">
			<data element_type="i64" shape="1" offset="148" size="8" />
			<output>
				<port id="0" precision="I64" names="/backbone/init_block/Constant_12_output_0">
					<dim>1</dim>
				</port>
			</output>
		</layer>
		<layer id="45" name="/backbone/init_block/Slice" type="StridedSlice" version="opset1">
			<data begin_mask="0" end_mask="0" new_axis_mask="" shrink_axis_mask="" ellipsis_mask="" />
			<input>
				<port id="0" precision="I64">
					<dim>4</dim>
					<dim>2</dim>
				</port>
				<port id="1" precision="I64">
					<dim>1</dim>
				</port>
				<port id="2" precision="I64">
					<dim>1</dim>
				</port>
				<port id="3" precision="I64">
					<dim>1</dim>
				</port>
			</input>
			<output>
				<port id="4" precision="I64" names="/backbone/init_block/Slice_output_0">
					<dim>4</dim>
					<dim>2</dim>
				</port>
			</output>
		</layer>
		<layer id="46" name="Constant_343" type="Const" version="opset1">
			<data element_type="i64" shape="2" offset="164" size="16" />
			<output>
				<port id="0" precision="I64">
					<dim>2</dim>
				</port>
			</output>
		</layer>
		<layer id="47" name="/backbone/init_block/Transpose" type="Transpose" version="opset1">
			<input>
				<port id="0" precision="I64">
					<dim>4</dim>
					<dim>2</dim>
				</port>
				<port id="1" precision="I64">
					<dim>2</dim>
				</port>
			</input>
			<output>
				<port id="2" precision="I64" names="/backbone/init_block/Transpose_output_0">
					<dim>2</dim>
					<dim>4</dim>
				</port>
			</output>
		</layer>
		<layer id="48" name="Constant_53002" type="Const" version="opset1">
			<data element_type="i64" shape="1" offset="148" size="8" />
			<output>
				<port id="0" precision="I64">
					<dim>1</dim>
				</port>
			</output>
		</layer>
		<layer id="49" name="/backbone/init_block/Reshape_1" type="Reshape" version="opset1">
			<data special_zero="true" />
			<input>
				<port id="0" precision="I64">
					<dim>2</dim>
					<dim>4</dim>
				</port>
				<port id="1" precision="I64">
					<dim>1</dim>
				</port>
			</input>
			<output>
				<port id="2" precision="I64" names="/backbone/init_block/Cast_5_output_0,/backbone/init_block/Reshape_1_output_0">
					<dim>8</dim>
				</port>
			</output>
		</layer>
		<layer id="50" name="Constant_352" type="Const" version="opset1">
			<data element_type="i64" shape="" offset="0" size="8" />
			<output>
				<port id="0" precision="I64" />
			</output>
		</layer>
		<layer id="51" name="Split_353" type="Split" version="opset1">
			<data num_splits="2" />
			<input>
				<port id="0" precision="I64">
					<dim>8</dim>
				</port>
				<port id="1" precision="I64" />
			</input>
			<output>
				<port id="2" precision="I64">
					<dim>4</dim>
				</port>
				<port id="3" precision="I64">
					<dim>4</dim>
				</port>
			</output>
		</layer>
		<layer id="52" name="Constant_351" type="Const" version="opset1">
			<data element_type="f32" shape="" offset="180" size="4" />
			<output>
				<port id="0" precision="FP32" />
			</output>
		</layer>
		<layer id="53" name="/backbone/init_block/Pad" type="Pad" version="opset1">
			<data pad_mode="constant" />
			<input>
				<port id="0" precision="FP32">
					<dim>-1</dim>
					<dim>3</dim>
					<dim>512</dim>
					<dim>512</dim>
				</port>
				<port id="1" precision="I64">
					<dim>4</dim>
				</port>
				<port id="2" precision="I64">
					<dim>4</dim>
				</port>
				<port id="3" precision="FP32" />
			</input>
			<output>
				<port id="4" precision="FP32" names="/backbone/init_block/Pad_output_0">
					<dim>-1</dim>
					<dim>3</dim>
					<dim>513</dim>
					<dim>513</dim>
				</port>
			</output>
		</layer>
		<layer id="54" name="onnx::Conv_3788" type="Const" version="opset1">
			<data element_type="i8" shape="32, 3, 3, 3" offset="184" size="864" />
			<output>
				<port id="0" precision="I8">
					<dim>32</dim>
					<dim>3</dim>
					<dim>3</dim>
					<dim>3</dim>
				</port>
			</output>
		</layer>
		<layer id="55" name="Convert_942200" type="Convert" version="opset1">
			<data destination_type="f32" />
			<input>
				<port id="0" precision="I8">
					<dim>32</dim>
					<dim>3</dim>
					<dim>3</dim>
					<dim>3</dim>
				</port>
			</input>
			<output>
				<port id="1" precision="FP32">
					<dim>32</dim>
					<dim>3</dim>
					<dim>3</dim>
					<dim>3</dim>
				</port>
			</output>
		</layer>
		<layer id="56" name="Constant_942098" type="Const" version="opset1">
			<data element_type="f32" shape="32, 1, 1, 1" offset="1048" size="128" />
			<output>
				<port id="0" precision="FP32">
					<dim>32</dim>
					<dim>1</dim>
					<dim>1</dim>
					<dim>1</dim>
				</port>
			</output>
		</layer>
		<layer id="57" name="/backbone/init_block/conv/conv/Conv/WithoutBiases/fq_weights_1" type="Multiply" version="opset1">
			<data auto_broadcast="numpy" />
			<input>
				<port id="0" precision="FP32">
					<dim>32</dim>
					<dim>3</dim>
					<dim>3</dim>
					<dim>3</dim>
				</port>
				<port id="1" precision="FP32">
					<dim>32</dim>
					<dim>1</dim>
					<dim>1</dim>
					<dim>1</dim>
				</port>
			</input>
			<output>
				<port id="2" precision="FP32">
					<dim>32</dim>
					<dim>3</dim>
					<dim>3</dim>
					<dim>3</dim>
				</port>
			</output>
		</layer>
		<layer id="58" name="/backbone/init_block/conv/conv/Conv/WithoutBiases" type="Convolution" version="opset1">
			<data strides="2, 2" dilations="1, 1" pads_begin="0, 0" pads_end="0, 0" auto_pad="explicit" />
			<input>
				<port id="0" precision="FP32">
					<dim>-1</dim>
					<dim>3</dim>
					<dim>513</dim>
					<dim>513</dim>
				</port>
				<port id="1" precision="FP32">
					<dim>32</dim>
					<dim>3</dim>
					<dim>3</dim>
					<dim>3</dim>
				</port>
			</input>
			<output>
				<port id="2" precision="FP32">
					<dim>-1</dim>
					<dim>32</dim>
					<dim>256</dim>
					<dim>256</dim>
				</port>
			</output>
		</layer>
		<layer id="59" name="Reshape_500" type="Const" version="opset1">
			<data element_type="f32" shape="1, 32, 1, 1" offset="1176" size="128" />
			<output>
				<port id="0" precision="FP32">
					<dim>1</dim>
					<dim>32</dim>
					<dim>1</dim>
					<dim>1</dim>
				</port>
			</output>
		</layer>
		<layer id="60" name="/backbone/init_block/conv/conv/Conv" type="Add" version="opset1">
			<data auto_broadcast="numpy" />
			<input>
				<port id="0" precision="FP32">
					<dim>-1</dim>
					<dim>32</dim>
					<dim>256</dim>
					<dim>256</dim>
				</port>
				<port id="1" precision="FP32">
					<dim>1</dim>
					<dim>32</dim>
					<dim>1</dim>
					<dim>1</dim>
				</port>
			</input>
			<output>
				<port id="2" precision="FP32" names="/backbone/init_block/conv/conv/Conv_output_0">
					<dim>-1</dim>
					<dim>32</dim>
					<dim>256</dim>
					<dim>256</dim>
				</port>
			</output>
		</layer>
		<layer id="61" name="/backbone/init_block/conv/activ/Mul" type="Swish" version="opset4">
			<input>
				<port id="0" precision="FP32">
					<dim>-1</dim>
					<dim>32</dim>
					<dim>256</dim>
					<dim>256</dim>
				</port>
			</input>
			<output>
				<port id="1" precision="FP32" names="/backbone/init_block/conv/activ/Mul_output_0">
					<dim>-1</dim>
					<dim>32</dim>
					<dim>256</dim>
					<dim>256</dim>
				</port>
			</output>
		</layer>
		<layer id="62" name="Constant_331060" type="Const" version="opset1">
			<data element_type="f32" shape="1, 32, 1, 1" offset="1304" size="128" />
			<output>
				<port id="0" precision="FP32">
					<dim>1</dim>
					<dim>32</dim>
					<dim>1</dim>
					<dim>1</dim>
				</port>
			</output>
		</layer>
		<layer id="63" name="Constant_331061" type="Const" version="opset1">
			<data element_type="f32" shape="1, 32, 1, 1" offset="1432" size="128" />
			<output>
				<port id="0" precision="FP32">
					<dim>1</dim>
					<dim>32</dim>
					<dim>1</dim>
					<dim>1</dim>
				</port>
			</output>
		</layer>
		<layer id="64" name="Constant_331062" type="Const" version="opset1">
			<data element_type="f32" shape="1, 32, 1, 1" offset="1304" size="128" />
			<output>
				<port id="0" precision="FP32">
					<dim>1</dim>
					<dim>32</dim>
					<dim>1</dim>
					<dim>1</dim>
				</port>
			</output>
		</layer>
		<layer id="65" name="Constant_331063" type="Const" version="opset1">
			<data element_type="f32" shape="1, 32, 1, 1" offset="1432" size="128" />
			<output>
				<port id="0" precision="FP32">
					<dim>1</dim>
					<dim>32</dim>
					<dim>1</dim>
					<dim>1</dim>
				</port>
			</output>
		</layer>
		<layer id="66" name="/backbone/init_block/conv/activ/Mul/fq_output_0" type="FakeQuantize" version="opset1">
			<data levels="256" auto_broadcast="numpy" />
			<input>
				<port id="0" precision="FP32">
					<dim>-1</dim>
					<dim>32</dim>
					<dim>256</dim>
					<dim>256</dim>
				</port>
				<port id="1" precision="FP32">
					<dim>1</dim>
					<dim>32</dim>
					<dim>1</dim>
					<dim>1</dim>
				</port>
				<port id="2" precision="FP32">
					<dim>1</dim>
					<dim>32</dim>
					<dim>1</dim>
					<dim>1</dim>
				</port>
				<port id="3" precision="FP32">
					<dim>1</dim>
					<dim>32</dim>
					<dim>1</dim>
					<dim>1</dim>
				</port>
				<port id="4" precision="FP32">
					<dim>1</dim>
					<dim>32</dim>
					<dim>1</dim>
					<dim>1</dim>
				</port>
			</input>
			<output>
				<port id="5" precision="FP32">
					<dim>-1</dim>
					<dim>32</dim>
					<dim>256</dim>
					<dim>256</dim>
				</port>
			</output>
		</layer>
		<layer id="67" name="/backbone/stage1/unit1/Constant_2" type="Const" version="opset1">
			<data element_type="i64" shape="" offset="1560" size="8" />
			<output>
				<port id="0" precision="I64" names="/backbone/stage1/unit1/Constant_2_output_0" />
			</output>
		</layer>
		<layer id="68" name="/backbone/stage1/unit1/Shape" type="ShapeOf" version="opset3">
			<data output_type="i64" />
			<input>
				<port id="0" precision="FP32">
					<dim>-1</dim>
					<dim>32</dim>
					<dim>256</dim>
					<dim>256</dim>
				</port>
			</input>
			<output>
				<port id="1" precision="I64" names="/backbone/stage1/unit1/Shape_1_output_0,/backbone/stage1/unit1/Shape_output_0">
					<dim>4</dim>
				</port>
			</output>
		</layer>
		<layer id="69" name="/backbone/stage1/unit1/Constant" type="Const" version="opset1">
			<data element_type="i64" shape="" offset="84" size="8" />
			<output>
				<port id="0" precision="I64" names="/backbone/stage1/unit1/Constant_output_0" />
			</output>
		</layer>
		<layer id="70" name="Constant_508" type="Const" version="opset1">
			<data element_type="i64" shape="" offset="0" size="8" />
			<output>
				<port id="0" precision="I64" />
			</output>
		</layer>
		<layer id="71" name="/backbone/stage1/unit1/Gather" type="Gather" version="opset8">
			<data batch_dims="0" />
			<input>
				<port id="0" precision="I64">
					<dim>4</dim>
				</port>
				<port id="1" precision="I64" />
				<port id="2" precision="I64" />
			</input>
			<output>
				<port id="3" precision="I64" names="/backbone/stage1/unit1/Gather_output_0" />
			</output>
		</layer>
		<layer id="72" name="/backbone/stage1/unit1/Sub" type="Subtract" version="opset1">
			<data auto_broadcast="numpy" />
			<input>
				<port id="0" precision="I64" />
				<port id="1" precision="I64" />
			</input>
			<output>
				<port id="2" precision="I64" names="/backbone/stage1/unit1/Sub_output_0" />
			</output>
		</layer>
		<layer id="73" name="/backbone/stage1/unit1/Constant_4" type="Const" version="opset1">
			<data element_type="i64" shape="" offset="84" size="8" />
			<output>
				<port id="0" precision="I64" names="/backbone/stage1/unit1/Constant_4_output_0" />
			</output>
		</layer>
		<layer id="74" name="/backbone/stage1/unit1/Div" type="Divide" version="opset1">
			<data auto_broadcast="numpy" m_pythondiv="true" />
			<input>
				<port id="0" precision="I64" />
				<port id="1" precision="I64" />
			</input>
			<output>
				<port id="2" precision="I64" names="/backbone/stage1/unit1/Cast_1_output_0,/backbone/stage1/unit1/Cast_output_0,/backbone/stage1/unit1/Div_output_0" />
			</output>
		</layer>
		<layer id="75" name="Constant_537" type="Const" version="opset1">
			<data element_type="i64" shape="1" offset="0" size="8" />
			<output>
				<port id="0" precision="I64">
					<dim>1</dim>
				</port>
			</output>
		</layer>
		<layer id="76" name="/backbone/stage1/unit1/Unsqueeze_4" type="Unsqueeze" version="opset1">
			<input>
				<port id="0" precision="I64" />
				<port id="1" precision="I64">
					<dim>1</dim>
				</port>
			</input>
			<output>
				<port id="2" precision="I64" names="/backbone/stage1/unit1/Unsqueeze_4_output_0">
					<dim>1</dim>
				</port>
			</output>
		</layer>
		<layer id="77" name="/backbone/stage1/unit1/Sub_2" type="Subtract" version="opset1">
			<data auto_broadcast="numpy" />
			<input>
				<port id="0" precision="I64" />
				<port id="1" precision="I64" />
			</input>
			<output>
				<port id="2" precision="I64" names="/backbone/stage1/unit1/Sub_2_output_0" />
			</output>
		</layer>
		<layer id="78" name="Constant_539" type="Const" version="opset1">
			<data element_type="i64" shape="1" offset="0" size="8" />
			<output>
				<port id="0" precision="I64">
					<dim>1</dim>
				</port>
			</output>
		</layer>
		<layer id="79" name="/backbone/stage1/unit1/Unsqueeze_5" type="Unsqueeze" version="opset1">
			<input>
				<port id="0" precision="I64" />
				<port id="1" precision="I64">
					<dim>1</dim>
				</port>
			</input>
			<output>
				<port id="2" precision="I64" names="/backbone/stage1/unit1/Unsqueeze_5_output_0">
					<dim>1</dim>
				</port>
			</output>
		</layer>
		<layer id="80" name="/backbone/stage1/unit1/Constant_3" type="Const" version="opset1">
			<data element_type="i64" shape="" offset="1560" size="8" />
			<output>
				<port id="0" precision="I64" names="/backbone/stage1/unit1/Constant_3_output_0" />
			</output>
		</layer>
		<layer id="81" name="/backbone/stage1/unit1/Constant_1" type="Const" version="opset1">
			<data element_type="i64" shape="" offset="92" size="8" />
			<output>
				<port id="0" precision="I64" names="/backbone/stage1/unit1/Constant_1_output_0" />
			</output>
		</layer>
		<layer id="82" name="Constant_512" type="Const" version="opset1">
			<data element_type="i64" shape="" offset="0" size="8" />
			<output>
				<port id="0" precision="I64" />
			</output>
		</layer>
		<layer id="83" name="/backbone/stage1/unit1/Gather_1" type="Gather" version="opset8">
			<data batch_dims="0" />
			<input>
				<port id="0" precision="I64">
					<dim>4</dim>
				</port>
				<port id="1" precision="I64" />
				<port id="2" precision="I64" />
			</input>
			<output>
				<port id="3" precision="I64" names="/backbone/stage1/unit1/Gather_1_output_0" />
			</output>
		</layer>
		<layer id="84" name="/backbone/stage1/unit1/Sub_1" type="Subtract" version="opset1">
			<data auto_broadcast="numpy" />
			<input>
				<port id="0" precision="I64" />
				<port id="1" precision="I64" />
			</input>
			<output>
				<port id="2" precision="I64" names="/backbone/stage1/unit1/Sub_1_output_0" />
			</output>
		</layer>
		<layer id="85" name="/backbone/stage1/unit1/Constant_5" type="Const" version="opset1">
			<data element_type="i64" shape="" offset="84" size="8" />
			<output>
				<port id="0" precision="I64" names="/backbone/stage1/unit1/Constant_5_output_0" />
			</output>
		</layer>
		<layer id="86" name="/backbone/stage1/unit1/Div_1" type="Divide" version="opset1">
			<data auto_broadcast="numpy" m_pythondiv="true" />
			<input>
				<port id="0" precision="I64" />
				<port id="1" precision="I64" />
			</input>
			<output>
				<port id="2" precision="I64" names="/backbone/stage1/unit1/Cast_2_output_0,/backbone/stage1/unit1/Cast_3_output_0,/backbone/stage1/unit1/Div_1_output_0" />
			</output>
		</layer>
		<layer id="87" name="Constant_541" type="Const" version="opset1">
			<data element_type="i64" shape="1" offset="0" size="8" />
			<output>
				<port id="0" precision="I64">
					<dim>1</dim>
				</port>
			</output>
		</layer>
		<layer id="88" name="/backbone/stage1/unit1/Unsqueeze_6" type="Unsqueeze" version="opset1">
			<input>
				<port id="0" precision="I64" />
				<port id="1" precision="I64">
					<dim>1</dim>
				</port>
			</input>
			<output>
				<port id="2" precision="I64" names="/backbone/stage1/unit1/Unsqueeze_6_output_0">
					<dim>1</dim>
				</port>
			</output>
		</layer>
		<layer id="89" name="/backbone/stage1/unit1/Sub_3" type="Subtract" version="opset1">
			<data auto_broadcast="numpy" />
			<input>
				<port id="0" precision="I64" />
				<port id="1" precision="I64" />
			</input>
			<output>
				<port id="2" precision="I64" names="/backbone/stage1/unit1/Sub_3_output_0" />
			</output>
		</layer>
		<layer id="90" name="Constant_543" type="Const" version="opset1">
			<data element_type="i64" shape="1" offset="0" size="8" />
			<output>
				<port id="0" precision="I64">
					<dim>1</dim>
				</port>
			</output>
		</layer>
		<layer id="91" name="/backbone/stage1/unit1/Unsqueeze_7" type="Unsqueeze" version="opset1">
			<input>
				<port id="0" precision="I64" />
				<port id="1" precision="I64">
					<dim>1</dim>
				</port>
			</input>
			<output>
				<port id="2" precision="I64" names="/backbone/stage1/unit1/Unsqueeze_7_output_0">
					<dim>1</dim>
				</port>
			</output>
		</layer>
		<layer id="92" name="/backbone/stage1/unit1/Concat_1" type="Concat" version="opset1">
			<data axis="0" />
			<input>
				<port id="0" precision="I64">
					<dim>1</dim>
				</port>
				<port id="1" precision="I64">
					<dim>1</dim>
				</port>
				<port id="2" precision="I64">
					<dim>1</dim>
				</port>
				<port id="3" precision="I64">
					<dim>1</dim>
				</port>
			</input>
			<output>
				<port id="4" precision="I64" names="/backbone/stage1/unit1/Cast_4_output_0,/backbone/stage1/unit1/Concat_1_output_0">
					<dim>4</dim>
				</port>
			</output>
		</layer>
		<layer id="93" name="/backbone/stage1/unit1/ConstantOfShape" type="Const" version="opset1">
			<data element_type="i64" shape="4" offset="100" size="32" />
			<output>
				<port id="0" precision="I64" names="/backbone/stage1/unit1/ConstantOfShape_output_0">
					<dim>4</dim>
				</port>
			</output>
		</layer>
		<layer id="94" name="/backbone/stage1/unit1/Concat_2" type="Concat" version="opset1">
			<data axis="0" />
			<input>
				<port id="0" precision="I64">
					<dim>4</dim>
				</port>
				<port id="1" precision="I64">
					<dim>4</dim>
				</port>
			</input>
			<output>
				<port id="2" precision="I64" names="/backbone/stage1/unit1/Concat_2_output_0">
					<dim>8</dim>
				</port>
			</output>
		</layer>
		<layer id="95" name="/backbone/stage1/unit1/Constant_8" type="Const" version="opset1">
			<data element_type="i64" shape="2" offset="132" size="16" />
			<output>
				<port id="0" precision="I64" names="/backbone/stage1/unit1/Constant_8_output_0">
					<dim>2</dim>
				</port>
			</output>
		</layer>
		<layer id="96" name="/backbone/stage1/unit1/Reshape" type="Reshape" version="opset1">
			<data special_zero="true" />
			<input>
				<port id="0" precision="I64">
					<dim>8</dim>
				</port>
				<port id="1" precision="I64">
					<dim>2</dim>
				</port>
			</input>
			<output>
				<port id="2" precision="I64" names="/backbone/stage1/unit1/Reshape_output_0">
					<dim>4</dim>
					<dim>2</dim>
				</port>
			</output>
		</layer>
		<layer id="97" name="/backbone/stage1/unit1/Constant_10" type="Const" version="opset1">
			<data element_type="i64" shape="1" offset="148" size="8" />
			<output>
				<port id="0" precision="I64" names="/backbone/stage1/unit1/Constant_10_output_0">
					<dim>1</dim>
				</port>
			</output>
		</layer>
		<layer id="98" name="/backbone/stage1/unit1/Constant_11" type="Const" version="opset1">
			<data element_type="i64" shape="1" offset="156" size="8" />
			<output>
				<port id="0" precision="I64" names="/backbone/stage1/unit1/Constant_11_output_0">
					<dim>1</dim>
				</port>
			</output>
		</layer>
		<layer id="99" name="/backbone/stage1/unit1/Constant_12" type="Const" version="opset1">
			<data element_type="i64" shape="1" offset="148" size="8" />
			<output>
				<port id="0" precision="I64" names="/backbone/stage1/unit1/Constant_12_output_0">
					<dim>1</dim>
				</port>
			</output>
		</layer>
		<layer id="100" name="/backbone/stage1/unit1/Slice" type="StridedSlice" version="opset1">
			<data begin_mask="0" end_mask="0" new_axis_mask="" shrink_axis_mask="" ellipsis_mask="" />
			<input>
				<port id="0" precision="I64">
					<dim>4</dim>
					<dim>2</dim>
				</port>
				<port id="1" precision="I64">
					<dim>1</dim>
				</port>
				<port id="2" precision="I64">
					<dim>1</dim>
				</port>
				<port id="3" precision="I64">
					<dim>1</dim>
				</port>
			</input>
			<output>
				<port id="4" precision="I64" names="/backbone/stage1/unit1/Slice_output_0">
					<dim>4</dim>
					<dim>2</dim>
				</port>
			</output>
		</layer>
		<layer id="101" name="Constant_568" type="Const" version="opset1">
			<data element_type="i64" shape="2" offset="164" size="16" />
			<output>
				<port id="0" precision="I64">
					<dim>2</dim>
				</port>
			</output>
		</layer>
		<layer id="102" name="/backbone/stage1/unit1/Transpose" type="Transpose" version="opset1">
			<input>
				<port id="0" precision="I64">
					<dim>4</dim>
					<dim>2</dim>
				</port>
				<port id="1" precision="I64">
					<dim>2</dim>
				</port>
			</input>
			<output>
				<port id="2" precision="I64" names="/backbone/stage1/unit1/Transpose_output_0">
					<dim>2</dim>
					<dim>4</dim>
				</port>
			</output>
		</layer>
		<layer id="103" name="Constant_53003" type="Const" version="opset1">
			<data element_type="i64" shape="1" offset="148" size="8" />
			<output>
				<port id="0" precision="I64">
					<dim>1</dim>
				</port>
			</output>
		</layer>
		<layer id="104" name="/backbone/stage1/unit1/Reshape_1" type="Reshape" version="opset1">
			<data special_zero="true" />
			<input>
				<port id="0" precision="I64">
					<dim>2</dim>
					<dim>4</dim>
				</port>
				<port id="1" precision="I64">
					<dim>1</dim>
				</port>
			</input>
			<output>
				<port id="2" precision="I64" names="/backbone/stage1/unit1/Cast_5_output_0,/backbone/stage1/unit1/Reshape_1_output_0">
					<dim>8</dim>
				</port>
			</output>
		</layer>
		<layer id="105" name="Constant_577" type="Const" version="opset1">
			<data element_type="i64" shape="" offset="0" size="8" />
			<output>
				<port id="0" precision="I64" />
			</output>
		</layer>
		<layer id="106" name="Split_578" type="Split" version="opset1">
			<data num_splits="2" />
			<input>
				<port id="0" precision="I64">
					<dim>8</dim>
				</port>
				<port id="1" precision="I64" />
			</input>
			<output>
				<port id="2" precision="I64">
					<dim>4</dim>
				</port>
				<port id="3" precision="I64">
					<dim>4</dim>
				</port>
			</output>
		</layer>
		<layer id="107" name="Constant_576" type="Const" version="opset1">
			<data element_type="f32" shape="" offset="180" size="4" />
			<output>
				<port id="0" precision="FP32" />
			</output>
		</layer>
		<layer id="108" name="/backbone/stage1/unit1/Pad" type="Pad" version="opset1">
			<data pad_mode="constant" />
			<input>
				<port id="0" precision="FP32">
					<dim>-1</dim>
					<dim>32</dim>
					<dim>256</dim>
					<dim>256</dim>
				</port>
				<port id="1" precision="I64">
					<dim>4</dim>
				</port>
				<port id="2" precision="I64">
					<dim>4</dim>
				</port>
				<port id="3" precision="FP32" />
			</input>
			<output>
				<port id="4" precision="FP32" names="/backbone/stage1/unit1/Pad_output_0">
					<dim>-1</dim>
					<dim>32</dim>
					<dim>258</dim>
					<dim>258</dim>
				</port>
			</output>
		</layer>
		<layer id="109" name="Reshape_721" type="Const" version="opset1">
			<data element_type="i8" shape="32, 1, 1, 3, 3" offset="1568" size="288" />
			<output>
				<port id="0" precision="I8">
					<dim>32</dim>
					<dim>1</dim>
					<dim>1</dim>
					<dim>3</dim>
					<dim>3</dim>
				</port>
			</output>
		</layer>
		<layer id="110" name="Convert_942354" type="Convert" version="opset1">
			<data destination_type="f32" />
			<input>
				<port id="0" precision="I8">
					<dim>32</dim>
					<dim>1</dim>
					<dim>1</dim>
					<dim>3</dim>
					<dim>3</dim>
				</port>
			</input>
			<output>
				<port id="1" precision="FP32">
					<dim>32</dim>
					<dim>1</dim>
					<dim>1</dim>
					<dim>3</dim>
					<dim>3</dim>
				</port>
			</output>
		</layer>
		<layer id="111" name="Constant_942252" type="Const" version="opset1">
			<data element_type="f32" shape="32, 1, 1, 1, 1" offset="1856" size="128" />
			<output>
				<port id="0" precision="FP32">
					<dim>32</dim>
					<dim>1</dim>
					<dim>1</dim>
					<dim>1</dim>
					<dim>1</dim>
				</port>
			</output>
		</layer>
		<layer id="112" name="/backbone/stage1/unit1/dw_conv/conv/Conv/WithoutBiases/fq_weights_1" type="Multiply" version="opset1">
			<data auto_broadcast="numpy" />
			<input>
				<port id="0" precision="FP32">
					<dim>32</dim>
					<dim>1</dim>
					<dim>1</dim>
					<dim>3</dim>
					<dim>3</dim>
				</port>
				<port id="1" precision="FP32">
					<dim>32</dim>
					<dim>1</dim>
					<dim>1</dim>
					<dim>1</dim>
					<dim>1</dim>
				</port>
			</input>
			<output>
				<port id="2" precision="FP32">
					<dim>32</dim>
					<dim>1</dim>
					<dim>1</dim>
					<dim>3</dim>
					<dim>3</dim>
				</port>
			</output>
		</layer>
		<layer id="113" name="/backbone/stage1/unit1/dw_conv/conv/Conv/WithoutBiases" type="GroupConvolution" version="opset1">
			<data strides="1, 1" pads_begin="0, 0" pads_end="0, 0" dilations="1, 1" auto_pad="explicit" />
			<input>
				<port id="0" precision="FP32">
					<dim>-1</dim>
					<dim>32</dim>
					<dim>258</dim>
					<dim>258</dim>
				</port>
				<port id="1" precision="FP32">
					<dim>32</dim>
					<dim>1</dim>
					<dim>1</dim>
					<dim>3</dim>
					<dim>3</dim>
				</port>
			</input>
			<output>
				<port id="2" precision="FP32">
					<dim>-1</dim>
					<dim>32</dim>
					<dim>256</dim>
					<dim>256</dim>
				</port>
			</output>
		</layer>
		<layer id="114" name="Reshape_773" type="Const" version="opset1">
			<data element_type="f32" shape="1, 32, 1, 1" offset="1984" size="128" />
			<output>
				<port id="0" precision="FP32">
					<dim>1</dim>
					<dim>32</dim>
					<dim>1</dim>
					<dim>1</dim>
				</port>
			</output>
		</layer>
		<layer id="115" name="/backbone/stage1/unit1/dw_conv/conv/Conv" type="Add" version="opset1">
			<data auto_broadcast="numpy" />
			<input>
				<port id="0" precision="FP32">
					<dim>-1</dim>
					<dim>32</dim>
					<dim>256</dim>
					<dim>256</dim>
				</port>
				<port id="1" precision="FP32">
					<dim>1</dim>
					<dim>32</dim>
					<dim>1</dim>
					<dim>1</dim>
				</port>
			</input>
			<output>
				<port id="2" precision="FP32" names="/backbone/stage1/unit1/dw_conv/conv/Conv_output_0">
					<dim>-1</dim>
					<dim>32</dim>
					<dim>256</dim>
					<dim>256</dim>
				</port>
			</output>
		</layer>
		<layer id="116" name="/backbone/stage1/unit1/dw_conv/activ/Mul" type="Swish" version="opset4">
			<input>
				<port id="0" precision="FP32">
					<dim>-1</dim>
					<dim>32</dim>
					<dim>256</dim>
					<dim>256</dim>
				</port>
			</input>
			<output>
				<port id="1" precision="FP32" names="/backbone/stage1/unit1/dw_conv/activ/Mul_output_0">
					<dim>-1</dim>
					<dim>32</dim>
					<dim>256</dim>
					<dim>256</dim>
				</port>
			</output>
		</layer>
		<layer id="117" name="Constant_331070" type="Const" version="opset1">
			<data element_type="f32" shape="" offset="2112" size="4" />
			<output>
				<port id="0" precision="FP32" />
			</output>
		</layer>
		<layer id="118" name="Constant_331071" type="Const" version="opset1">
			<data element_type="f32" shape="" offset="2116" size="4" />
			<output>
				<port id="0" precision="FP32" />
			</output>
		</layer>
		<layer id="119" name="Constant_331072" type="Const" version="opset1">
			<data element_type="f32" shape="" offset="2112" size="4" />
			<output>
				<port id="0" precision="FP32" />
			</output>
		</layer>
		<layer id="120" name="Constant_331073" type="Const" version="opset1">
			<data element_type="f32" shape="" offset="2116" size="4" />
			<output>
				<port id="0" precision="FP32" />
			</output>
		</layer>
		<layer id="121" name="/backbone/stage1/unit1/dw_conv/activ/Mul/fq_output_0" type="FakeQuantize" version="opset1">
			<data levels="256" auto_broadcast="numpy" />
			<input>
				<port id="0" precision="FP32">
					<dim>-1</dim>
					<dim>32</dim>
					<dim>256</dim>
					<dim>256</dim>
				</port>
				<port id="1" precision="FP32" />
				<port id="2" precision="FP32" />
				<port id="3" precision="FP32" />
				<port id="4" precision="FP32" />
			</input>
			<output>
				<port id="5" precision="FP32">
					<dim>-1</dim>
					<dim>32</dim>
					<dim>256</dim>
					<dim>256</dim>
				</port>
			</output>
		</layer>
		<layer id="122" name="Range_785" type="Const" version="opset1">
			<data element_type="i64" shape="2" offset="2120" size="16" />
			<output>
				<port id="0" precision="I64">
					<dim>2</dim>
				</port>
			</output>
		</layer>
		<layer id="123" name="/backbone/stage1/unit1/se/pool/GlobalAveragePool" type="ReduceMean" version="opset1">
			<data keep_dims="true" />
			<input>
				<port id="0" precision="FP32">
					<dim>-1</dim>
					<dim>32</dim>
					<dim>256</dim>
					<dim>256</dim>
				</port>
				<port id="1" precision="I64">
					<dim>2</dim>
				</port>
			</input>
			<output>
				<port id="2" precision="FP32" names="/backbone/stage1/unit1/se/pool/GlobalAveragePool_output_0">
					<dim>-1</dim>
					<dim>32</dim>
					<dim>1</dim>
					<dim>1</dim>
				</port>
			</output>
		</layer>
		<layer id="124" name="backbone.features.stage1.unit1.se.conv1.weight" type="Const" version="opset1">
			<data element_type="f32" shape="8, 32, 1, 1" offset="2136" size="1024" />
			<output>
				<port id="0" precision="FP32" names="backbone.features.stage1.unit1.se.conv1.weight">
					<dim>8</dim>
					<dim>32</dim>
					<dim>1</dim>
					<dim>1</dim>
				</port>
			</output>
		</layer>
		<layer id="125" name="/backbone/stage1/unit1/se/conv1/Conv/WithoutBiases" type="Convolution" version="opset1">
			<data strides="1, 1" dilations="1, 1" pads_begin="0, 0" pads_end="0, 0" auto_pad="explicit" />
			<input>
				<port id="0" precision="FP32">
					<dim>-1</dim>
					<dim>32</dim>
					<dim>1</dim>
					<dim>1</dim>
				</port>
				<port id="1" precision="FP32">
					<dim>8</dim>
					<dim>32</dim>
					<dim>1</dim>
					<dim>1</dim>
				</port>
			</input>
			<output>
				<port id="2" precision="FP32">
					<dim>-1</dim>
					<dim>8</dim>
					<dim>1</dim>
					<dim>1</dim>
				</port>
			</output>
		</layer>
		<layer id="126" name="Reshape_800" type="Const" version="opset1">
			<data element_type="f32" shape="1, 8, 1, 1" offset="3160" size="32" />
			<output>
				<port id="0" precision="FP32">
					<dim>1</dim>
					<dim>8</dim>
					<dim>1</dim>
					<dim>1</dim>
				</port>
			</output>
		</layer>
		<layer id="127" name="/backbone/stage1/unit1/se/conv1/Conv" type="Add" version="opset1">
			<data auto_broadcast="numpy" />
			<input>
				<port id="0" precision="FP32">
					<dim>-1</dim>
					<dim>8</dim>
					<dim>1</dim>
					<dim>1</dim>
				</port>
				<port id="1" precision="FP32">
					<dim>1</dim>
					<dim>8</dim>
					<dim>1</dim>
					<dim>1</dim>
				</port>
			</input>
			<output>
				<port id="2" precision="FP32" names="/backbone/stage1/unit1/se/conv1/Conv_output_0">
					<dim>-1</dim>
					<dim>8</dim>
					<dim>1</dim>
					<dim>1</dim>
				</port>
			</output>
		</layer>
		<layer id="128" name="/backbone/stage1/unit1/se/activ/Mul" type="Swish" version="opset4">
			<input>
				<port id="0" precision="FP32">
					<dim>-1</dim>
					<dim>8</dim>
					<dim>1</dim>
					<dim>1</dim>
				</port>
			</input>
			<output>
				<port id="1" precision="FP32" names="/backbone/stage1/unit1/se/activ/Mul_output_0">
					<dim>-1</dim>
					<dim>8</dim>
					<dim>1</dim>
					<dim>1</dim>
				</port>
			</output>
		</layer>
		<layer id="129" name="backbone.features.stage1.unit1.se.conv2.weight" type="Const" version="opset1">
			<data element_type="f32" shape="32, 8, 1, 1" offset="3192" size="1024" />
			<output>
				<port id="0" precision="FP32" names="backbone.features.stage1.unit1.se.conv2.weight">
					<dim>32</dim>
					<dim>8</dim>
					<dim>1</dim>
					<dim>1</dim>
				</port>
			</output>
		</layer>
		<layer id="130" name="/backbone/stage1/unit1/se/conv2/Conv/WithoutBiases" type="Convolution" version="opset1">
			<data strides="1, 1" dilations="1, 1" pads_begin="0, 0" pads_end="0, 0" auto_pad="explicit" />
			<input>
				<port id="0" precision="FP32">
					<dim>-1</dim>
					<dim>8</dim>
					<dim>1</dim>
					<dim>1</dim>
				</port>
				<port id="1" precision="FP32">
					<dim>32</dim>
					<dim>8</dim>
					<dim>1</dim>
					<dim>1</dim>
				</port>
			</input>
			<output>
				<port id="2" precision="FP32">
					<dim>-1</dim>
					<dim>32</dim>
					<dim>1</dim>
					<dim>1</dim>
				</port>
			</output>
		</layer>
		<layer id="131" name="Reshape_817" type="Const" version="opset1">
			<data element_type="f32" shape="1, 32, 1, 1" offset="4216" size="128" />
			<output>
				<port id="0" precision="FP32">
					<dim>1</dim>
					<dim>32</dim>
					<dim>1</dim>
					<dim>1</dim>
				</port>
			</output>
		</layer>
		<layer id="132" name="/backbone/stage1/unit1/se/conv2/Conv" type="Add" version="opset1">
			<data auto_broadcast="numpy" />
			<input>
				<port id="0" precision="FP32">
					<dim>-1</dim>
					<dim>32</dim>
					<dim>1</dim>
					<dim>1</dim>
				</port>
				<port id="1" precision="FP32">
					<dim>1</dim>
					<dim>32</dim>
					<dim>1</dim>
					<dim>1</dim>
				</port>
			</input>
			<output>
				<port id="2" precision="FP32" names="/backbone/stage1/unit1/se/conv2/Conv_output_0">
					<dim>-1</dim>
					<dim>32</dim>
					<dim>1</dim>
					<dim>1</dim>
				</port>
			</output>
		</layer>
		<layer id="133" name="/backbone/stage1/unit1/se/sigmoid/Sigmoid" type="Sigmoid" version="opset1">
			<input>
				<port id="0" precision="FP32">
					<dim>-1</dim>
					<dim>32</dim>
					<dim>1</dim>
					<dim>1</dim>
				</port>
			</input>
			<output>
				<port id="1" precision="FP32" names="/backbone/stage1/unit1/se/sigmoid/Sigmoid_output_0">
					<dim>-1</dim>
					<dim>32</dim>
					<dim>1</dim>
					<dim>1</dim>
				</port>
			</output>
		</layer>
		<layer id="134" name="/backbone/stage1/unit1/se/Mul" type="Multiply" version="opset1">
			<data auto_broadcast="numpy" />
			<input>
				<port id="0" precision="FP32">
					<dim>-1</dim>
					<dim>32</dim>
					<dim>256</dim>
					<dim>256</dim>
				</port>
				<port id="1" precision="FP32">
					<dim>-1</dim>
					<dim>32</dim>
					<dim>1</dim>
					<dim>1</dim>
				</port>
			</input>
			<output>
				<port id="2" precision="FP32" names="/backbone/stage1/unit1/se/Mul_output_0">
					<dim>-1</dim>
					<dim>32</dim>
					<dim>256</dim>
					<dim>256</dim>
				</port>
			</output>
		</layer>
		<layer id="135" name="Constant_331075" type="Const" version="opset1">
			<data element_type="f32" shape="" offset="4344" size="4" />
			<output>
				<port id="0" precision="FP32" />
			</output>
		</layer>
		<layer id="136" name="Constant_331076" type="Const" version="opset1">
			<data element_type="f32" shape="" offset="4348" size="4" />
			<output>
				<port id="0" precision="FP32" />
			</output>
		</layer>
		<layer id="137" name="Constant_331077" type="Const" version="opset1">
			<data element_type="f32" shape="" offset="4344" size="4" />
			<output>
				<port id="0" precision="FP32" />
			</output>
		</layer>
		<layer id="138" name="Constant_331078" type="Const" version="opset1">
			<data element_type="f32" shape="" offset="4348" size="4" />
			<output>
				<port id="0" precision="FP32" />
			</output>
		</layer>
		<layer id="139" name="/backbone/stage1/unit1/se/Mul/fq_output_0" type="FakeQuantize" version="opset1">
			<data levels="256" auto_broadcast="numpy" />
			<input>
				<port id="0" precision="FP32">
					<dim>-1</dim>
					<dim>32</dim>
					<dim>256</dim>
					<dim>256</dim>
				</port>
				<port id="1" precision="FP32" />
				<port id="2" precision="FP32" />
				<port id="3" precision="FP32" />
				<port id="4" precision="FP32" />
			</input>
			<output>
				<port id="5" precision="FP32">
					<dim>-1</dim>
					<dim>32</dim>
					<dim>256</dim>
					<dim>256</dim>
				</port>
			</output>
		</layer>
		<layer id="140" name="onnx::Conv_3794" type="Const" version="opset1">
			<data element_type="i8" shape="16, 32, 1, 1" offset="4352" size="512" />
			<output>
				<port id="0" precision="I8">
					<dim>16</dim>
					<dim>32</dim>
					<dim>1</dim>
					<dim>1</dim>
				</port>
			</output>
		</layer>
		<layer id="141" name="Convert_942508" type="Convert" version="opset1">
			<data destination_type="f32" />
			<input>
				<port id="0" precision="I8">
					<dim>16</dim>
					<dim>32</dim>
					<dim>1</dim>
					<dim>1</dim>
				</port>
			</input>
			<output>
				<port id="1" precision="FP32">
					<dim>16</dim>
					<dim>32</dim>
					<dim>1</dim>
					<dim>1</dim>
				</port>
			</output>
		</layer>
		<layer id="142" name="Constant_942406" type="Const" version="opset1">
			<data element_type="f32" shape="16, 1, 1, 1" offset="4864" size="64" />
			<output>
				<port id="0" precision="FP32">
					<dim>16</dim>
					<dim>1</dim>
					<dim>1</dim>
					<dim>1</dim>
				</port>
			</output>
		</layer>
		<layer id="143" name="/backbone/stage1/unit1/pw_conv/conv/Conv/WithoutBiases/fq_weights_1" type="Multiply" version="opset1">
			<data auto_broadcast="numpy" />
			<input>
				<port id="0" precision="FP32">
					<dim>16</dim>
					<dim>32</dim>
					<dim>1</dim>
					<dim>1</dim>
				</port>
				<port id="1" precision="FP32">
					<dim>16</dim>
					<dim>1</dim>
					<dim>1</dim>
					<dim>1</dim>
				</port>
			</input>
			<output>
				<port id="2" precision="FP32">
					<dim>16</dim>
					<dim>32</dim>
					<dim>1</dim>
					<dim>1</dim>
				</port>
			</output>
		</layer>
		<layer id="144" name="/backbone/stage1/unit1/pw_conv/conv/Conv/WithoutBiases" type="Convolution" version="opset1">
			<data strides="1, 1" dilations="1, 1" pads_begin="0, 0" pads_end="0, 0" auto_pad="explicit" />
			<input>
				<port id="0" precision="FP32">
					<dim>-1</dim>
					<dim>32</dim>
					<dim>256</dim>
					<dim>256</dim>
				</port>
				<port id="1" precision="FP32">
					<dim>16</dim>
					<dim>32</dim>
					<dim>1</dim>
					<dim>1</dim>
				</port>
			</input>
			<output>
				<port id="2" precision="FP32">
					<dim>-1</dim>
					<dim>16</dim>
					<dim>256</dim>
					<dim>256</dim>
				</port>
			</output>
		</layer>
		<layer id="145" name="Reshape_834" type="Const" version="opset1">
			<data element_type="f32" shape="1, 16, 1, 1" offset="4928" size="64" />
			<output>
				<port id="0" precision="FP32">
					<dim>1</dim>
					<dim>16</dim>
					<dim>1</dim>
					<dim>1</dim>
				</port>
			</output>
		</layer>
		<layer id="146" name="/backbone/stage1/unit1/pw_conv/conv/Conv" type="Add" version="opset1">
			<data auto_broadcast="numpy" />
			<input>
				<port id="0" precision="FP32">
					<dim>-1</dim>
					<dim>16</dim>
					<dim>256</dim>
					<dim>256</dim>
				</port>
				<port id="1" precision="FP32">
					<dim>1</dim>
					<dim>16</dim>
					<dim>1</dim>
					<dim>1</dim>
				</port>
			</input>
			<output>
				<port id="2" precision="FP32" names="/backbone/stage1/unit1/pw_conv/conv/Conv_output_0">
					<dim>-1</dim>
					<dim>16</dim>
					<dim>256</dim>
					<dim>256</dim>
				</port>
			</output>
		</layer>
		<layer id="147" name="Constant_331085" type="Const" version="opset1">
			<data element_type="f32" shape="" offset="4992" size="4" />
			<output>
				<port id="0" precision="FP32" />
			</output>
		</layer>
		<layer id="148" name="Constant_331086" type="Const" version="opset1">
			<data element_type="f32" shape="" offset="4996" size="4" />
			<output>
				<port id="0" precision="FP32" />
			</output>
		</layer>
		<layer id="149" name="Constant_331087" type="Const" version="opset1">
			<data element_type="f32" shape="" offset="4992" size="4" />
			<output>
				<port id="0" precision="FP32" />
			</output>
		</layer>
		<layer id="150" name="Constant_331088" type="Const" version="opset1">
			<data element_type="f32" shape="" offset="4996" size="4" />
			<output>
				<port id="0" precision="FP32" />
			</output>
		</layer>
		<layer id="151" name="/backbone/stage1/unit1/pw_conv/conv/Conv/fq_output_0" type="FakeQuantize" version="opset1">
			<data levels="256" auto_broadcast="numpy" />
			<input>
				<port id="0" precision="FP32">
					<dim>-1</dim>
					<dim>16</dim>
					<dim>256</dim>
					<dim>256</dim>
				</port>
				<port id="1" precision="FP32" />
				<port id="2" precision="FP32" />
				<port id="3" precision="FP32" />
				<port id="4" precision="FP32" />
			</input>
			<output>
				<port id="5" precision="FP32">
					<dim>-1</dim>
					<dim>16</dim>
					<dim>256</dim>
					<dim>256</dim>
				</port>
			</output>
		</layer>
		<layer id="152" name="/backbone/stage1/unit2/Constant_2" type="Const" version="opset1">
			<data element_type="i64" shape="" offset="1560" size="8" />
			<output>
				<port id="0" precision="I64" names="/backbone/stage1/unit2/Constant_2_output_0" />
			</output>
		</layer>
		<layer id="153" name="/backbone/stage1/unit2/Shape" type="ShapeOf" version="opset3">
			<data output_type="i64" />
			<input>
				<port id="0" precision="FP32">
					<dim>-1</dim>
					<dim>16</dim>
					<dim>256</dim>
					<dim>256</dim>
				</port>
			</input>
			<output>
				<port id="1" precision="I64" names="/backbone/stage1/unit2/Shape_1_output_0,/backbone/stage1/unit2/Shape_output_0">
					<dim>4</dim>
				</port>
			</output>
		</layer>
		<layer id="154" name="/backbone/stage1/unit2/Constant" type="Const" version="opset1">
			<data element_type="i64" shape="" offset="84" size="8" />
			<output>
				<port id="0" precision="I64" names="/backbone/stage1/unit2/Constant_output_0" />
			</output>
		</layer>
		<layer id="155" name="Constant_840" type="Const" version="opset1">
			<data element_type="i64" shape="" offset="0" size="8" />
			<output>
				<port id="0" precision="I64" />
			</output>
		</layer>
		<layer id="156" name="/backbone/stage1/unit2/Gather" type="Gather" version="opset8">
			<data batch_dims="0" />
			<input>
				<port id="0" precision="I64">
					<dim>4</dim>
				</port>
				<port id="1" precision="I64" />
				<port id="2" precision="I64" />
			</input>
			<output>
				<port id="3" precision="I64" names="/backbone/stage1/unit2/Gather_output_0" />
			</output>
		</layer>
		<layer id="157" name="/backbone/stage1/unit2/Sub" type="Subtract" version="opset1">
			<data auto_broadcast="numpy" />
			<input>
				<port id="0" precision="I64" />
				<port id="1" precision="I64" />
			</input>
			<output>
				<port id="2" precision="I64" names="/backbone/stage1/unit2/Sub_output_0" />
			</output>
		</layer>
		<layer id="158" name="/backbone/stage1/unit2/Constant_4" type="Const" version="opset1">
			<data element_type="i64" shape="" offset="84" size="8" />
			<output>
				<port id="0" precision="I64" names="/backbone/stage1/unit2/Constant_4_output_0" />
			</output>
		</layer>
		<layer id="159" name="/backbone/stage1/unit2/Div" type="Divide" version="opset1">
			<data auto_broadcast="numpy" m_pythondiv="true" />
			<input>
				<port id="0" precision="I64" />
				<port id="1" precision="I64" />
			</input>
			<output>
				<port id="2" precision="I64" names="/backbone/stage1/unit2/Cast_1_output_0,/backbone/stage1/unit2/Cast_output_0,/backbone/stage1/unit2/Div_output_0" />
			</output>
		</layer>
		<layer id="160" name="Constant_869" type="Const" version="opset1">
			<data element_type="i64" shape="1" offset="0" size="8" />
			<output>
				<port id="0" precision="I64">
					<dim>1</dim>
				</port>
			</output>
		</layer>
		<layer id="161" name="/backbone/stage1/unit2/Unsqueeze_4" type="Unsqueeze" version="opset1">
			<input>
				<port id="0" precision="I64" />
				<port id="1" precision="I64">
					<dim>1</dim>
				</port>
			</input>
			<output>
				<port id="2" precision="I64" names="/backbone/stage1/unit2/Unsqueeze_4_output_0">
					<dim>1</dim>
				</port>
			</output>
		</layer>
		<layer id="162" name="/backbone/stage1/unit2/Sub_2" type="Subtract" version="opset1">
			<data auto_broadcast="numpy" />
			<input>
				<port id="0" precision="I64" />
				<port id="1" precision="I64" />
			</input>
			<output>
				<port id="2" precision="I64" names="/backbone/stage1/unit2/Sub_2_output_0" />
			</output>
		</layer>
		<layer id="163" name="Constant_871" type="Const" version="opset1">
			<data element_type="i64" shape="1" offset="0" size="8" />
			<output>
				<port id="0" precision="I64">
					<dim>1</dim>
				</port>
			</output>
		</layer>
		<layer id="164" name="/backbone/stage1/unit2/Unsqueeze_5" type="Unsqueeze" version="opset1">
			<input>
				<port id="0" precision="I64" />
				<port id="1" precision="I64">
					<dim>1</dim>
				</port>
			</input>
			<output>
				<port id="2" precision="I64" names="/backbone/stage1/unit2/Unsqueeze_5_output_0">
					<dim>1</dim>
				</port>
			</output>
		</layer>
		<layer id="165" name="/backbone/stage1/unit2/Constant_3" type="Const" version="opset1">
			<data element_type="i64" shape="" offset="1560" size="8" />
			<output>
				<port id="0" precision="I64" names="/backbone/stage1/unit2/Constant_3_output_0" />
			</output>
		</layer>
		<layer id="166" name="/backbone/stage1/unit2/Constant_1" type="Const" version="opset1">
			<data element_type="i64" shape="" offset="92" size="8" />
			<output>
				<port id="0" precision="I64" names="/backbone/stage1/unit2/Constant_1_output_0" />
			</output>
		</layer>
		<layer id="167" name="Constant_844" type="Const" version="opset1">
			<data element_type="i64" shape="" offset="0" size="8" />
			<output>
				<port id="0" precision="I64" />
			</output>
		</layer>
		<layer id="168" name="/backbone/stage1/unit2/Gather_1" type="Gather" version="opset8">
			<data batch_dims="0" />
			<input>
				<port id="0" precision="I64">
					<dim>4</dim>
				</port>
				<port id="1" precision="I64" />
				<port id="2" precision="I64" />
			</input>
			<output>
				<port id="3" precision="I64" names="/backbone/stage1/unit2/Gather_1_output_0" />
			</output>
		</layer>
		<layer id="169" name="/backbone/stage1/unit2/Sub_1" type="Subtract" version="opset1">
			<data auto_broadcast="numpy" />
			<input>
				<port id="0" precision="I64" />
				<port id="1" precision="I64" />
			</input>
			<output>
				<port id="2" precision="I64" names="/backbone/stage1/unit2/Sub_1_output_0" />
			</output>
		</layer>
		<layer id="170" name="/backbone/stage1/unit2/Constant_5" type="Const" version="opset1">
			<data element_type="i64" shape="" offset="84" size="8" />
			<output>
				<port id="0" precision="I64" names="/backbone/stage1/unit2/Constant_5_output_0" />
			</output>
		</layer>
		<layer id="171" name="/backbone/stage1/unit2/Div_1" type="Divide" version="opset1">
			<data auto_broadcast="numpy" m_pythondiv="true" />
			<input>
				<port id="0" precision="I64" />
				<port id="1" precision="I64" />
			</input>
			<output>
				<port id="2" precision="I64" names="/backbone/stage1/unit2/Cast_2_output_0,/backbone/stage1/unit2/Cast_3_output_0,/backbone/stage1/unit2/Div_1_output_0" />
			</output>
		</layer>
		<layer id="172" name="Constant_873" type="Const" version="opset1">
			<data element_type="i64" shape="1" offset="0" size="8" />
			<output>
				<port id="0" precision="I64">
					<dim>1</dim>
				</port>
			</output>
		</layer>
		<layer id="173" name="/backbone/stage1/unit2/Unsqueeze_6" type="Unsqueeze" version="opset1">
			<input>
				<port id="0" precision="I64" />
				<port id="1" precision="I64">
					<dim>1</dim>
				</port>
			</input>
			<output>
				<port id="2" precision="I64" names="/backbone/stage1/unit2/Unsqueeze_6_output_0">
					<dim>1</dim>
				</port>
			</output>
		</layer>
		<layer id="174" name="/backbone/stage1/unit2/Sub_3" type="Subtract" version="opset1">
			<data auto_broadcast="numpy" />
			<input>
				<port id="0" precision="I64" />
				<port id="1" precision="I64" />
			</input>
			<output>
				<port id="2" precision="I64" names="/backbone/stage1/unit2/Sub_3_output_0" />
			</output>
		</layer>
		<layer id="175" name="Constant_875" type="Const" version="opset1">
			<data element_type="i64" shape="1" offset="0" size="8" />
			<output>
				<port id="0" precision="I64">
					<dim>1</dim>
				</port>
			</output>
		</layer>
		<layer id="176" name="/backbone/stage1/unit2/Unsqueeze_7" type="Unsqueeze" version="opset1">
			<input>
				<port id="0" precision="I64" />
				<port id="1" precision="I64">
					<dim>1</dim>
				</port>
			</input>
			<output>
				<port id="2" precision="I64" names="/backbone/stage1/unit2/Unsqueeze_7_output_0">
					<dim>1</dim>
				</port>
			</output>
		</layer>
		<layer id="177" name="/backbone/stage1/unit2/Concat_1" type="Concat" version="opset1">
			<data axis="0" />
			<input>
				<port id="0" precision="I64">
					<dim>1</dim>
				</port>
				<port id="1" precision="I64">
					<dim>1</dim>
				</port>
				<port id="2" precision="I64">
					<dim>1</dim>
				</port>
				<port id="3" precision="I64">
					<dim>1</dim>
				</port>
			</input>
			<output>
				<port id="4" precision="I64" names="/backbone/stage1/unit2/Cast_4_output_0,/backbone/stage1/unit2/Concat_1_output_0">
					<dim>4</dim>
				</port>
			</output>
		</layer>
		<layer id="178" name="/backbone/stage1/unit2/ConstantOfShape" type="Const" version="opset1">
			<data element_type="i64" shape="4" offset="100" size="32" />
			<output>
				<port id="0" precision="I64" names="/backbone/stage1/unit2/ConstantOfShape_output_0">
					<dim>4</dim>
				</port>
			</output>
		</layer>
		<layer id="179" name="/backbone/stage1/unit2/Concat_2" type="Concat" version="opset1">
			<data axis="0" />
			<input>
				<port id="0" precision="I64">
					<dim>4</dim>
				</port>
				<port id="1" precision="I64">
					<dim>4</dim>
				</port>
			</input>
			<output>
				<port id="2" precision="I64" names="/backbone/stage1/unit2/Concat_2_output_0">
					<dim>8</dim>
				</port>
			</output>
		</layer>
		<layer id="180" name="/backbone/stage1/unit2/Constant_8" type="Const" version="opset1">
			<data element_type="i64" shape="2" offset="132" size="16" />
			<output>
				<port id="0" precision="I64" names="/backbone/stage1/unit2/Constant_8_output_0">
					<dim>2</dim>
				</port>
			</output>
		</layer>
		<layer id="181" name="/backbone/stage1/unit2/Reshape" type="Reshape" version="opset1">
			<data special_zero="true" />
			<input>
				<port id="0" precision="I64">
					<dim>8</dim>
				</port>
				<port id="1" precision="I64">
					<dim>2</dim>
				</port>
			</input>
			<output>
				<port id="2" precision="I64" names="/backbone/stage1/unit2/Reshape_output_0">
					<dim>4</dim>
					<dim>2</dim>
				</port>
			</output>
		</layer>
		<layer id="182" name="/backbone/stage1/unit2/Constant_10" type="Const" version="opset1">
			<data element_type="i64" shape="1" offset="148" size="8" />
			<output>
				<port id="0" precision="I64" names="/backbone/stage1/unit2/Constant_10_output_0">
					<dim>1</dim>
				</port>
			</output>
		</layer>
		<layer id="183" name="/backbone/stage1/unit2/Constant_11" type="Const" version="opset1">
			<data element_type="i64" shape="1" offset="156" size="8" />
			<output>
				<port id="0" precision="I64" names="/backbone/stage1/unit2/Constant_11_output_0">
					<dim>1</dim>
				</port>
			</output>
		</layer>
		<layer id="184" name="/backbone/stage1/unit2/Constant_12" type="Const" version="opset1">
			<data element_type="i64" shape="1" offset="148" size="8" />
			<output>
				<port id="0" precision="I64" names="/backbone/stage1/unit2/Constant_12_output_0">
					<dim>1</dim>
				</port>
			</output>
		</layer>
		<layer id="185" name="/backbone/stage1/unit2/Slice" type="StridedSlice" version="opset1">
			<data begin_mask="0" end_mask="0" new_axis_mask="" shrink_axis_mask="" ellipsis_mask="" />
			<input>
				<port id="0" precision="I64">
					<dim>4</dim>
					<dim>2</dim>
				</port>
				<port id="1" precision="I64">
					<dim>1</dim>
				</port>
				<port id="2" precision="I64">
					<dim>1</dim>
				</port>
				<port id="3" precision="I64">
					<dim>1</dim>
				</port>
			</input>
			<output>
				<port id="4" precision="I64" names="/backbone/stage1/unit2/Slice_output_0">
					<dim>4</dim>
					<dim>2</dim>
				</port>
			</output>
		</layer>
		<layer id="186" name="Constant_900" type="Const" version="opset1">
			<data element_type="i64" shape="2" offset="164" size="16" />
			<output>
				<port id="0" precision="I64">
					<dim>2</dim>
				</port>
			</output>
		</layer>
		<layer id="187" name="/backbone/stage1/unit2/Transpose" type="Transpose" version="opset1">
			<input>
				<port id="0" precision="I64">
					<dim>4</dim>
					<dim>2</dim>
				</port>
				<port id="1" precision="I64">
					<dim>2</dim>
				</port>
			</input>
			<output>
				<port id="2" precision="I64" names="/backbone/stage1/unit2/Transpose_output_0">
					<dim>2</dim>
					<dim>4</dim>
				</port>
			</output>
		</layer>
		<layer id="188" name="Constant_53004" type="Const" version="opset1">
			<data element_type="i64" shape="1" offset="148" size="8" />
			<output>
				<port id="0" precision="I64">
					<dim>1</dim>
				</port>
			</output>
		</layer>
		<layer id="189" name="/backbone/stage1/unit2/Reshape_1" type="Reshape" version="opset1">
			<data special_zero="true" />
			<input>
				<port id="0" precision="I64">
					<dim>2</dim>
					<dim>4</dim>
				</port>
				<port id="1" precision="I64">
					<dim>1</dim>
				</port>
			</input>
			<output>
				<port id="2" precision="I64" names="/backbone/stage1/unit2/Cast_5_output_0,/backbone/stage1/unit2/Reshape_1_output_0">
					<dim>8</dim>
				</port>
			</output>
		</layer>
		<layer id="190" name="Constant_909" type="Const" version="opset1">
			<data element_type="i64" shape="" offset="0" size="8" />
			<output>
				<port id="0" precision="I64" />
			</output>
		</layer>
		<layer id="191" name="Split_910" type="Split" version="opset1">
			<data num_splits="2" />
			<input>
				<port id="0" precision="I64">
					<dim>8</dim>
				</port>
				<port id="1" precision="I64" />
			</input>
			<output>
				<port id="2" precision="I64">
					<dim>4</dim>
				</port>
				<port id="3" precision="I64">
					<dim>4</dim>
				</port>
			</output>
		</layer>
		<layer id="192" name="Constant_908" type="Const" version="opset1">
			<data element_type="f32" shape="" offset="180" size="4" />
			<output>
				<port id="0" precision="FP32" />
			</output>
		</layer>
		<layer id="193" name="/backbone/stage1/unit2/Pad" type="Pad" version="opset1">
			<data pad_mode="constant" />
			<input>
				<port id="0" precision="FP32">
					<dim>-1</dim>
					<dim>16</dim>
					<dim>256</dim>
					<dim>256</dim>
				</port>
				<port id="1" precision="I64">
					<dim>4</dim>
				</port>
				<port id="2" precision="I64">
					<dim>4</dim>
				</port>
				<port id="3" precision="FP32" />
			</input>
			<output>
				<port id="4" precision="FP32" names="/backbone/stage1/unit2/Pad_output_0">
					<dim>-1</dim>
					<dim>16</dim>
					<dim>258</dim>
					<dim>258</dim>
				</port>
			</output>
		</layer>
		<layer id="194" name="Reshape_1053" type="Const" version="opset1">
			<data element_type="i8" shape="16, 1, 1, 3, 3" offset="5000" size="144" />
			<output>
				<port id="0" precision="I8">
					<dim>16</dim>
					<dim>1</dim>
					<dim>1</dim>
					<dim>3</dim>
					<dim>3</dim>
				</port>
			</output>
		</layer>
		<layer id="195" name="Convert_942662" type="Convert" version="opset1">
			<data destination_type="f32" />
			<input>
				<port id="0" precision="I8">
					<dim>16</dim>
					<dim>1</dim>
					<dim>1</dim>
					<dim>3</dim>
					<dim>3</dim>
				</port>
			</input>
			<output>
				<port id="1" precision="FP32">
					<dim>16</dim>
					<dim>1</dim>
					<dim>1</dim>
					<dim>3</dim>
					<dim>3</dim>
				</port>
			</output>
		</layer>
		<layer id="196" name="Constant_942560" type="Const" version="opset1">
			<data element_type="f32" shape="16, 1, 1, 1, 1" offset="5144" size="64" />
			<output>
				<port id="0" precision="FP32">
					<dim>16</dim>
					<dim>1</dim>
					<dim>1</dim>
					<dim>1</dim>
					<dim>1</dim>
				</port>
			</output>
		</layer>
		<layer id="197" name="/backbone/stage1/unit2/dw_conv/conv/Conv/WithoutBiases/fq_weights_1" type="Multiply" version="opset1">
			<data auto_broadcast="numpy" />
			<input>
				<port id="0" precision="FP32">
					<dim>16</dim>
					<dim>1</dim>
					<dim>1</dim>
					<dim>3</dim>
					<dim>3</dim>
				</port>
				<port id="1" precision="FP32">
					<dim>16</dim>
					<dim>1</dim>
					<dim>1</dim>
					<dim>1</dim>
					<dim>1</dim>
				</port>
			</input>
			<output>
				<port id="2" precision="FP32">
					<dim>16</dim>
					<dim>1</dim>
					<dim>1</dim>
					<dim>3</dim>
					<dim>3</dim>
				</port>
			</output>
		</layer>
		<layer id="198" name="/backbone/stage1/unit2/dw_conv/conv/Conv/WithoutBiases" type="GroupConvolution" version="opset1">
			<data strides="1, 1" pads_begin="0, 0" pads_end="0, 0" dilations="1, 1" auto_pad="explicit" />
			<input>
				<port id="0" precision="FP32">
					<dim>-1</dim>
					<dim>16</dim>
					<dim>258</dim>
					<dim>258</dim>
				</port>
				<port id="1" precision="FP32">
					<dim>16</dim>
					<dim>1</dim>
					<dim>1</dim>
					<dim>3</dim>
					<dim>3</dim>
				</port>
			</input>
			<output>
				<port id="2" precision="FP32">
					<dim>-1</dim>
					<dim>16</dim>
					<dim>256</dim>
					<dim>256</dim>
				</port>
			</output>
		</layer>
		<layer id="199" name="Reshape_1105" type="Const" version="opset1">
			<data element_type="f32" shape="1, 16, 1, 1" offset="5208" size="64" />
			<output>
				<port id="0" precision="FP32">
					<dim>1</dim>
					<dim>16</dim>
					<dim>1</dim>
					<dim>1</dim>
				</port>
			</output>
		</layer>
		<layer id="200" name="/backbone/stage1/unit2/dw_conv/conv/Conv" type="Add" version="opset1">
			<data auto_broadcast="numpy" />
			<input>
				<port id="0" precision="FP32">
					<dim>-1</dim>
					<dim>16</dim>
					<dim>256</dim>
					<dim>256</dim>
				</port>
				<port id="1" precision="FP32">
					<dim>1</dim>
					<dim>16</dim>
					<dim>1</dim>
					<dim>1</dim>
				</port>
			</input>
			<output>
				<port id="2" precision="FP32" names="/backbone/stage1/unit2/dw_conv/conv/Conv_output_0">
					<dim>-1</dim>
					<dim>16</dim>
					<dim>256</dim>
					<dim>256</dim>
				</port>
			</output>
		</layer>
		<layer id="201" name="/backbone/stage1/unit2/dw_conv/activ/Mul" type="Swish" version="opset4">
			<input>
				<port id="0" precision="FP32">
					<dim>-1</dim>
					<dim>16</dim>
					<dim>256</dim>
					<dim>256</dim>
				</port>
			</input>
			<output>
				<port id="1" precision="FP32" names="/backbone/stage1/unit2/dw_conv/activ/Mul_output_0">
					<dim>-1</dim>
					<dim>16</dim>
					<dim>256</dim>
					<dim>256</dim>
				</port>
			</output>
		</layer>
		<layer id="202" name="Constant_331095" type="Const" version="opset1">
			<data element_type="f32" shape="" offset="5272" size="4" />
			<output>
				<port id="0" precision="FP32" />
			</output>
		</layer>
		<layer id="203" name="Constant_331096" type="Const" version="opset1">
			<data element_type="f32" shape="" offset="5276" size="4" />
			<output>
				<port id="0" precision="FP32" />
			</output>
		</layer>
		<layer id="204" name="Constant_331097" type="Const" version="opset1">
			<data element_type="f32" shape="" offset="5272" size="4" />
			<output>
				<port id="0" precision="FP32" />
			</output>
		</layer>
		<layer id="205" name="Constant_331098" type="Const" version="opset1">
			<data element_type="f32" shape="" offset="5276" size="4" />
			<output>
				<port id="0" precision="FP32" />
			</output>
		</layer>
		<layer id="206" name="/backbone/stage1/unit2/dw_conv/activ/Mul/fq_output_0" type="FakeQuantize" version="opset1">
			<data levels="256" auto_broadcast="numpy" />
			<input>
				<port id="0" precision="FP32">
					<dim>-1</dim>
					<dim>16</dim>
					<dim>256</dim>
					<dim>256</dim>
				</port>
				<port id="1" precision="FP32" />
				<port id="2" precision="FP32" />
				<port id="3" precision="FP32" />
				<port id="4" precision="FP32" />
			</input>
			<output>
				<port id="5" precision="FP32">
					<dim>-1</dim>
					<dim>16</dim>
					<dim>256</dim>
					<dim>256</dim>
				</port>
			</output>
		</layer>
		<layer id="207" name="Range_1117" type="Const" version="opset1">
			<data element_type="i64" shape="2" offset="2120" size="16" />
			<output>
				<port id="0" precision="I64">
					<dim>2</dim>
				</port>
			</output>
		</layer>
		<layer id="208" name="/backbone/stage1/unit2/se/pool/GlobalAveragePool" type="ReduceMean" version="opset1">
			<data keep_dims="true" />
			<input>
				<port id="0" precision="FP32">
					<dim>-1</dim>
					<dim>16</dim>
					<dim>256</dim>
					<dim>256</dim>
				</port>
				<port id="1" precision="I64">
					<dim>2</dim>
				</port>
			</input>
			<output>
				<port id="2" precision="FP32" names="/backbone/stage1/unit2/se/pool/GlobalAveragePool_output_0">
					<dim>-1</dim>
					<dim>16</dim>
					<dim>1</dim>
					<dim>1</dim>
				</port>
			</output>
		</layer>
		<layer id="209" name="backbone.features.stage1.unit2.se.conv1.weight" type="Const" version="opset1">
			<data element_type="f32" shape="4, 16, 1, 1" offset="5280" size="256" />
			<output>
				<port id="0" precision="FP32" names="backbone.features.stage1.unit2.se.conv1.weight">
					<dim>4</dim>
					<dim>16</dim>
					<dim>1</dim>
					<dim>1</dim>
				</port>
			</output>
		</layer>
		<layer id="210" name="/backbone/stage1/unit2/se/conv1/Conv/WithoutBiases" type="Convolution" version="opset1">
			<data strides="1, 1" dilations="1, 1" pads_begin="0, 0" pads_end="0, 0" auto_pad="explicit" />
			<input>
				<port id="0" precision="FP32">
					<dim>-1</dim>
					<dim>16</dim>
					<dim>1</dim>
					<dim>1</dim>
				</port>
				<port id="1" precision="FP32">
					<dim>4</dim>
					<dim>16</dim>
					<dim>1</dim>
					<dim>1</dim>
				</port>
			</input>
			<output>
				<port id="2" precision="FP32">
					<dim>-1</dim>
					<dim>4</dim>
					<dim>1</dim>
					<dim>1</dim>
				</port>
			</output>
		</layer>
		<layer id="211" name="Reshape_1132" type="Const" version="opset1">
			<data element_type="f32" shape="1, 4, 1, 1" offset="5536" size="16" />
			<output>
				<port id="0" precision="FP32">
					<dim>1</dim>
					<dim>4</dim>
					<dim>1</dim>
					<dim>1</dim>
				</port>
			</output>
		</layer>
		<layer id="212" name="/backbone/stage1/unit2/se/conv1/Conv" type="Add" version="opset1">
			<data auto_broadcast="numpy" />
			<input>
				<port id="0" precision="FP32">
					<dim>-1</dim>
					<dim>4</dim>
					<dim>1</dim>
					<dim>1</dim>
				</port>
				<port id="1" precision="FP32">
					<dim>1</dim>
					<dim>4</dim>
					<dim>1</dim>
					<dim>1</dim>
				</port>
			</input>
			<output>
				<port id="2" precision="FP32" names="/backbone/stage1/unit2/se/conv1/Conv_output_0">
					<dim>-1</dim>
					<dim>4</dim>
					<dim>1</dim>
					<dim>1</dim>
				</port>
			</output>
		</layer>
		<layer id="213" name="/backbone/stage1/unit2/se/activ/Mul" type="Swish" version="opset4">
			<input>
				<port id="0" precision="FP32">
					<dim>-1</dim>
					<dim>4</dim>
					<dim>1</dim>
					<dim>1</dim>
				</port>
			</input>
			<output>
				<port id="1" precision="FP32" names="/backbone/stage1/unit2/se/activ/Mul_output_0">
					<dim>-1</dim>
					<dim>4</dim>
					<dim>1</dim>
					<dim>1</dim>
				</port>
			</output>
		</layer>
		<layer id="214" name="backbone.features.stage1.unit2.se.conv2.weight" type="Const" version="opset1">
			<data element_type="f32" shape="16, 4, 1, 1" offset="5552" size="256" />
			<output>
				<port id="0" precision="FP32" names="backbone.features.stage1.unit2.se.conv2.weight">
					<dim>16</dim>
					<dim>4</dim>
					<dim>1</dim>
					<dim>1</dim>
				</port>
			</output>
		</layer>
		<layer id="215" name="/backbone/stage1/unit2/se/conv2/Conv/WithoutBiases" type="Convolution" version="opset1">
			<data strides="1, 1" dilations="1, 1" pads_begin="0, 0" pads_end="0, 0" auto_pad="explicit" />
			<input>
				<port id="0" precision="FP32">
					<dim>-1</dim>
					<dim>4</dim>
					<dim>1</dim>
					<dim>1</dim>
				</port>
				<port id="1" precision="FP32">
					<dim>16</dim>
					<dim>4</dim>
					<dim>1</dim>
					<dim>1</dim>
				</port>
			</input>
			<output>
				<port id="2" precision="FP32">
					<dim>-1</dim>
					<dim>16</dim>
					<dim>1</dim>
					<dim>1</dim>
				</port>
			</output>
		</layer>
		<layer id="216" name="Reshape_1149" type="Const" version="opset1">
			<data element_type="f32" shape="1, 16, 1, 1" offset="5808" size="64" />
			<output>
				<port id="0" precision="FP32">
					<dim>1</dim>
					<dim>16</dim>
					<dim>1</dim>
					<dim>1</dim>
				</port>
			</output>
		</layer>
		<layer id="217" name="/backbone/stage1/unit2/se/conv2/Conv" type="Add" version="opset1">
			<data auto_broadcast="numpy" />
			<input>
				<port id="0" precision="FP32">
					<dim>-1</dim>
					<dim>16</dim>
					<dim>1</dim>
					<dim>1</dim>
				</port>
				<port id="1" precision="FP32">
					<dim>1</dim>
					<dim>16</dim>
					<dim>1</dim>
					<dim>1</dim>
				</port>
			</input>
			<output>
				<port id="2" precision="FP32" names="/backbone/stage1/unit2/se/conv2/Conv_output_0">
					<dim>-1</dim>
					<dim>16</dim>
					<dim>1</dim>
					<dim>1</dim>
				</port>
			</output>
		</layer>
		<layer id="218" name="/backbone/stage1/unit2/se/sigmoid/Sigmoid" type="Sigmoid" version="opset1">
			<input>
				<port id="0" precision="FP32">
					<dim>-1</dim>
					<dim>16</dim>
					<dim>1</dim>
					<dim>1</dim>
				</port>
			</input>
			<output>
				<port id="1" precision="FP32" names="/backbone/stage1/unit2/se/sigmoid/Sigmoid_output_0">
					<dim>-1</dim>
					<dim>16</dim>
					<dim>1</dim>
					<dim>1</dim>
				</port>
			</output>
		</layer>
		<layer id="219" name="/backbone/stage1/unit2/se/Mul" type="Multiply" version="opset1">
			<data auto_broadcast="numpy" />
			<input>
				<port id="0" precision="FP32">
					<dim>-1</dim>
					<dim>16</dim>
					<dim>256</dim>
					<dim>256</dim>
				</port>
				<port id="1" precision="FP32">
					<dim>-1</dim>
					<dim>16</dim>
					<dim>1</dim>
					<dim>1</dim>
				</port>
			</input>
			<output>
				<port id="2" precision="FP32" names="/backbone/stage1/unit2/se/Mul_output_0">
					<dim>-1</dim>
					<dim>16</dim>
					<dim>256</dim>
					<dim>256</dim>
				</port>
			</output>
		</layer>
		<layer id="220" name="Constant_331100" type="Const" version="opset1">
			<data element_type="f32" shape="" offset="5872" size="4" />
			<output>
				<port id="0" precision="FP32" />
			</output>
		</layer>
		<layer id="221" name="Constant_331101" type="Const" version="opset1">
			<data element_type="f32" shape="" offset="5876" size="4" />
			<output>
				<port id="0" precision="FP32" />
			</output>
		</layer>
		<layer id="222" name="Constant_331102" type="Const" version="opset1">
			<data element_type="f32" shape="" offset="5872" size="4" />
			<output>
				<port id="0" precision="FP32" />
			</output>
		</layer>
		<layer id="223" name="Constant_331103" type="Const" version="opset1">
			<data element_type="f32" shape="" offset="5876" size="4" />
			<output>
				<port id="0" precision="FP32" />
			</output>
		</layer>
		<layer id="224" name="/backbone/stage1/unit2/se/Mul/fq_output_0" type="FakeQuantize" version="opset1">
			<data levels="256" auto_broadcast="numpy" />
			<input>
				<port id="0" precision="FP32">
					<dim>-1</dim>
					<dim>16</dim>
					<dim>256</dim>
					<dim>256</dim>
				</port>
				<port id="1" precision="FP32" />
				<port id="2" precision="FP32" />
				<port id="3" precision="FP32" />
				<port id="4" precision="FP32" />
			</input>
			<output>
				<port id="5" precision="FP32">
					<dim>-1</dim>
					<dim>16</dim>
					<dim>256</dim>
					<dim>256</dim>
				</port>
			</output>
		</layer>
		<layer id="225" name="onnx::Conv_3800" type="Const" version="opset1">
			<data element_type="i8" shape="16, 16, 1, 1" offset="5880" size="256" />
			<output>
				<port id="0" precision="I8">
					<dim>16</dim>
					<dim>16</dim>
					<dim>1</dim>
					<dim>1</dim>
				</port>
			</output>
		</layer>
		<layer id="226" name="Convert_942816" type="Convert" version="opset1">
			<data destination_type="f32" />
			<input>
				<port id="0" precision="I8">
					<dim>16</dim>
					<dim>16</dim>
					<dim>1</dim>
					<dim>1</dim>
				</port>
			</input>
			<output>
				<port id="1" precision="FP32">
					<dim>16</dim>
					<dim>16</dim>
					<dim>1</dim>
					<dim>1</dim>
				</port>
			</output>
		</layer>
		<layer id="227" name="Constant_942714" type="Const" version="opset1">
			<data element_type="f32" shape="16, 1, 1, 1" offset="6136" size="64" />
			<output>
				<port id="0" precision="FP32">
					<dim>16</dim>
					<dim>1</dim>
					<dim>1</dim>
					<dim>1</dim>
				</port>
			</output>
		</layer>
		<layer id="228" name="/backbone/stage1/unit2/pw_conv/conv/Conv/WithoutBiases/fq_weights_1" type="Multiply" version="opset1">
			<data auto_broadcast="numpy" />
			<input>
				<port id="0" precision="FP32">
					<dim>16</dim>
					<dim>16</dim>
					<dim>1</dim>
					<dim>1</dim>
				</port>
				<port id="1" precision="FP32">
					<dim>16</dim>
					<dim>1</dim>
					<dim>1</dim>
					<dim>1</dim>
				</port>
			</input>
			<output>
				<port id="2" precision="FP32">
					<dim>16</dim>
					<dim>16</dim>
					<dim>1</dim>
					<dim>1</dim>
				</port>
			</output>
		</layer>
		<layer id="229" name="/backbone/stage1/unit2/pw_conv/conv/Conv/WithoutBiases" type="Convolution" version="opset1">
			<data strides="1, 1" dilations="1, 1" pads_begin="0, 0" pads_end="0, 0" auto_pad="explicit" />
			<input>
				<port id="0" precision="FP32">
					<dim>-1</dim>
					<dim>16</dim>
					<dim>256</dim>
					<dim>256</dim>
				</port>
				<port id="1" precision="FP32">
					<dim>16</dim>
					<dim>16</dim>
					<dim>1</dim>
					<dim>1</dim>
				</port>
			</input>
			<output>
				<port id="2" precision="FP32">
					<dim>-1</dim>
					<dim>16</dim>
					<dim>256</dim>
					<dim>256</dim>
				</port>
			</output>
		</layer>
		<layer id="230" name="Reshape_1166" type="Const" version="opset1">
			<data element_type="f32" shape="1, 16, 1, 1" offset="6200" size="64" />
			<output>
				<port id="0" precision="FP32">
					<dim>1</dim>
					<dim>16</dim>
					<dim>1</dim>
					<dim>1</dim>
				</port>
			</output>
		</layer>
		<layer id="231" name="/backbone/stage1/unit2/pw_conv/conv/Conv" type="Add" version="opset1">
			<data auto_broadcast="numpy" />
			<input>
				<port id="0" precision="FP32">
					<dim>-1</dim>
					<dim>16</dim>
					<dim>256</dim>
					<dim>256</dim>
				</port>
				<port id="1" precision="FP32">
					<dim>1</dim>
					<dim>16</dim>
					<dim>1</dim>
					<dim>1</dim>
				</port>
			</input>
			<output>
				<port id="2" precision="FP32" names="/backbone/stage1/unit2/pw_conv/conv/Conv_output_0">
					<dim>-1</dim>
					<dim>16</dim>
					<dim>256</dim>
					<dim>256</dim>
				</port>
			</output>
		</layer>
		<layer id="232" name="Constant_331110" type="Const" version="opset1">
			<data element_type="f32" shape="" offset="6264" size="4" />
			<output>
				<port id="0" precision="FP32" />
			</output>
		</layer>
		<layer id="233" name="Constant_331111" type="Const" version="opset1">
			<data element_type="f32" shape="" offset="6268" size="4" />
			<output>
				<port id="0" precision="FP32" />
			</output>
		</layer>
		<layer id="234" name="Constant_331112" type="Const" version="opset1">
			<data element_type="f32" shape="" offset="6264" size="4" />
			<output>
				<port id="0" precision="FP32" />
			</output>
		</layer>
		<layer id="235" name="Constant_331113" type="Const" version="opset1">
			<data element_type="f32" shape="" offset="6268" size="4" />
			<output>
				<port id="0" precision="FP32" />
			</output>
		</layer>
		<layer id="236" name="/backbone/stage1/unit2/pw_conv/conv/Conv/fq_output_0" type="FakeQuantize" version="opset1">
			<data levels="256" auto_broadcast="numpy" />
			<input>
				<port id="0" precision="FP32">
					<dim>-1</dim>
					<dim>16</dim>
					<dim>256</dim>
					<dim>256</dim>
				</port>
				<port id="1" precision="FP32" />
				<port id="2" precision="FP32" />
				<port id="3" precision="FP32" />
				<port id="4" precision="FP32" />
			</input>
			<output>
				<port id="5" precision="FP32">
					<dim>-1</dim>
					<dim>16</dim>
					<dim>256</dim>
					<dim>256</dim>
				</port>
			</output>
		</layer>
		<layer id="237" name="/backbone/stage1/unit2/Add" type="Add" version="opset1">
			<data auto_broadcast="numpy" />
			<input>
				<port id="0" precision="FP32">
					<dim>-1</dim>
					<dim>16</dim>
					<dim>256</dim>
					<dim>256</dim>
				</port>
				<port id="1" precision="FP32">
					<dim>-1</dim>
					<dim>16</dim>
					<dim>256</dim>
					<dim>256</dim>
				</port>
			</input>
			<output>
				<port id="2" precision="FP32" names="/backbone/stage1/unit2/Add_output_0">
					<dim>-1</dim>
					<dim>16</dim>
					<dim>256</dim>
					<dim>256</dim>
				</port>
			</output>
		</layer>
		<layer id="238" name="Constant_331115" type="Const" version="opset1">
			<data element_type="f32" shape="" offset="6272" size="4" />
			<output>
				<port id="0" precision="FP32" />
			</output>
		</layer>
		<layer id="239" name="Constant_331116" type="Const" version="opset1">
			<data element_type="f32" shape="" offset="6276" size="4" />
			<output>
				<port id="0" precision="FP32" />
			</output>
		</layer>
		<layer id="240" name="Constant_331117" type="Const" version="opset1">
			<data element_type="f32" shape="" offset="6272" size="4" />
			<output>
				<port id="0" precision="FP32" />
			</output>
		</layer>
		<layer id="241" name="Constant_331118" type="Const" version="opset1">
			<data element_type="f32" shape="" offset="6276" size="4" />
			<output>
				<port id="0" precision="FP32" />
			</output>
		</layer>
		<layer id="242" name="/backbone/stage1/unit2/Add/fq_output_0" type="FakeQuantize" version="opset1">
			<data levels="256" auto_broadcast="numpy" />
			<input>
				<port id="0" precision="FP32">
					<dim>-1</dim>
					<dim>16</dim>
					<dim>256</dim>
					<dim>256</dim>
				</port>
				<port id="1" precision="FP32" />
				<port id="2" precision="FP32" />
				<port id="3" precision="FP32" />
				<port id="4" precision="FP32" />
			</input>
			<output>
				<port id="5" precision="FP32">
					<dim>-1</dim>
					<dim>16</dim>
					<dim>256</dim>
					<dim>256</dim>
				</port>
			</output>
		</layer>
		<layer id="243" name="onnx::Conv_3803" type="Const" version="opset1">
			<data element_type="i8" shape="96, 16, 1, 1" offset="6280" size="1536" />
			<output>
				<port id="0" precision="I8">
					<dim>96</dim>
					<dim>16</dim>
					<dim>1</dim>
					<dim>1</dim>
				</port>
			</output>
		</layer>
		<layer id="244" name="Convert_942970" type="Convert" version="opset1">
			<data destination_type="f32" />
			<input>
				<port id="0" precision="I8">
					<dim>96</dim>
					<dim>16</dim>
					<dim>1</dim>
					<dim>1</dim>
				</port>
			</input>
			<output>
				<port id="1" precision="FP32">
					<dim>96</dim>
					<dim>16</dim>
					<dim>1</dim>
					<dim>1</dim>
				</port>
			</output>
		</layer>
		<layer id="245" name="Constant_942868" type="Const" version="opset1">
			<data element_type="f32" shape="96, 1, 1, 1" offset="7816" size="384" />
			<output>
				<port id="0" precision="FP32">
					<dim>96</dim>
					<dim>1</dim>
					<dim>1</dim>
					<dim>1</dim>
				</port>
			</output>
		</layer>
		<layer id="246" name="/backbone/stage2/unit1/conv1/conv/Conv/WithoutBiases/fq_weights_1" type="Multiply" version="opset1">
			<data auto_broadcast="numpy" />
			<input>
				<port id="0" precision="FP32">
					<dim>96</dim>
					<dim>16</dim>
					<dim>1</dim>
					<dim>1</dim>
				</port>
				<port id="1" precision="FP32">
					<dim>96</dim>
					<dim>1</dim>
					<dim>1</dim>
					<dim>1</dim>
				</port>
			</input>
			<output>
				<port id="2" precision="FP32">
					<dim>96</dim>
					<dim>16</dim>
					<dim>1</dim>
					<dim>1</dim>
				</port>
			</output>
		</layer>
		<layer id="247" name="/backbone/stage2/unit1/conv1/conv/Conv/WithoutBiases" type="Convolution" version="opset1">
			<data strides="1, 1" dilations="1, 1" pads_begin="0, 0" pads_end="0, 0" auto_pad="explicit" />
			<input>
				<port id="0" precision="FP32">
					<dim>-1</dim>
					<dim>16</dim>
					<dim>256</dim>
					<dim>256</dim>
				</port>
				<port id="1" precision="FP32">
					<dim>96</dim>
					<dim>16</dim>
					<dim>1</dim>
					<dim>1</dim>
				</port>
			</input>
			<output>
				<port id="2" precision="FP32">
					<dim>-1</dim>
					<dim>96</dim>
					<dim>256</dim>
					<dim>256</dim>
				</port>
			</output>
		</layer>
		<layer id="248" name="Reshape_1182" type="Const" version="opset1">
			<data element_type="f32" shape="1, 96, 1, 1" offset="8200" size="384" />
			<output>
				<port id="0" precision="FP32">
					<dim>1</dim>
					<dim>96</dim>
					<dim>1</dim>
					<dim>1</dim>
				</port>
			</output>
		</layer>
		<layer id="249" name="/backbone/stage2/unit1/conv1/conv/Conv" type="Add" version="opset1">
			<data auto_broadcast="numpy" />
			<input>
				<port id="0" precision="FP32">
					<dim>-1</dim>
					<dim>96</dim>
					<dim>256</dim>
					<dim>256</dim>
				</port>
				<port id="1" precision="FP32">
					<dim>1</dim>
					<dim>96</dim>
					<dim>1</dim>
					<dim>1</dim>
				</port>
			</input>
			<output>
				<port id="2" precision="FP32" names="/backbone/stage2/unit1/conv1/conv/Conv_output_0">
					<dim>-1</dim>
					<dim>96</dim>
					<dim>256</dim>
					<dim>256</dim>
				</port>
			</output>
		</layer>
		<layer id="250" name="/backbone/stage2/unit1/conv1/activ/Mul" type="Swish" version="opset4">
			<input>
				<port id="0" precision="FP32">
					<dim>-1</dim>
					<dim>96</dim>
					<dim>256</dim>
					<dim>256</dim>
				</port>
			</input>
			<output>
				<port id="1" precision="FP32" names="/backbone/stage2/unit1/conv1/activ/Mul_output_0">
					<dim>-1</dim>
					<dim>96</dim>
					<dim>256</dim>
					<dim>256</dim>
				</port>
			</output>
		</layer>
		<layer id="251" name="Constant_331125" type="Const" version="opset1">
			<data element_type="f32" shape="1, 96, 1, 1" offset="8584" size="384" />
			<output>
				<port id="0" precision="FP32">
					<dim>1</dim>
					<dim>96</dim>
					<dim>1</dim>
					<dim>1</dim>
				</port>
			</output>
		</layer>
		<layer id="252" name="Constant_331126" type="Const" version="opset1">
			<data element_type="f32" shape="1, 96, 1, 1" offset="8968" size="384" />
			<output>
				<port id="0" precision="FP32">
					<dim>1</dim>
					<dim>96</dim>
					<dim>1</dim>
					<dim>1</dim>
				</port>
			</output>
		</layer>
		<layer id="253" name="Constant_331127" type="Const" version="opset1">
			<data element_type="f32" shape="1, 96, 1, 1" offset="8584" size="384" />
			<output>
				<port id="0" precision="FP32">
					<dim>1</dim>
					<dim>96</dim>
					<dim>1</dim>
					<dim>1</dim>
				</port>
			</output>
		</layer>
		<layer id="254" name="Constant_331128" type="Const" version="opset1">
			<data element_type="f32" shape="1, 96, 1, 1" offset="8968" size="384" />
			<output>
				<port id="0" precision="FP32">
					<dim>1</dim>
					<dim>96</dim>
					<dim>1</dim>
					<dim>1</dim>
				</port>
			</output>
		</layer>
		<layer id="255" name="/backbone/stage2/unit1/conv1/activ/Mul/fq_output_0" type="FakeQuantize" version="opset1">
			<data levels="256" auto_broadcast="numpy" />
			<input>
				<port id="0" precision="FP32">
					<dim>-1</dim>
					<dim>96</dim>
					<dim>256</dim>
					<dim>256</dim>
				</port>
				<port id="1" precision="FP32">
					<dim>1</dim>
					<dim>96</dim>
					<dim>1</dim>
					<dim>1</dim>
				</port>
				<port id="2" precision="FP32">
					<dim>1</dim>
					<dim>96</dim>
					<dim>1</dim>
					<dim>1</dim>
				</port>
				<port id="3" precision="FP32">
					<dim>1</dim>
					<dim>96</dim>
					<dim>1</dim>
					<dim>1</dim>
				</port>
				<port id="4" precision="FP32">
					<dim>1</dim>
					<dim>96</dim>
					<dim>1</dim>
					<dim>1</dim>
				</port>
			</input>
			<output>
				<port id="5" precision="FP32">
					<dim>-1</dim>
					<dim>96</dim>
					<dim>256</dim>
					<dim>256</dim>
				</port>
			</output>
		</layer>
		<layer id="256" name="/backbone/stage2/unit1/Constant_2" type="Const" version="opset1">
			<data element_type="i64" shape="" offset="9352" size="8" />
			<output>
				<port id="0" precision="I64" names="/backbone/stage2/unit1/Constant_2_output_0" />
			</output>
		</layer>
		<layer id="257" name="/backbone/stage2/unit1/Shape" type="ShapeOf" version="opset3">
			<data output_type="i64" />
			<input>
				<port id="0" precision="FP32">
					<dim>-1</dim>
					<dim>96</dim>
					<dim>256</dim>
					<dim>256</dim>
				</port>
			</input>
			<output>
				<port id="1" precision="I64" names="/backbone/stage2/unit1/Shape_1_output_0,/backbone/stage2/unit1/Shape_output_0">
					<dim>4</dim>
				</port>
			</output>
		</layer>
		<layer id="258" name="/backbone/stage2/unit1/Constant" type="Const" version="opset1">
			<data element_type="i64" shape="" offset="84" size="8" />
			<output>
				<port id="0" precision="I64" names="/backbone/stage2/unit1/Constant_output_0" />
			</output>
		</layer>
		<layer id="259" name="Constant_1190" type="Const" version="opset1">
			<data element_type="i64" shape="" offset="0" size="8" />
			<output>
				<port id="0" precision="I64" />
			</output>
		</layer>
		<layer id="260" name="/backbone/stage2/unit1/Gather" type="Gather" version="opset8">
			<data batch_dims="0" />
			<input>
				<port id="0" precision="I64">
					<dim>4</dim>
				</port>
				<port id="1" precision="I64" />
				<port id="2" precision="I64" />
			</input>
			<output>
				<port id="3" precision="I64" names="/backbone/stage2/unit1/Gather_output_0" />
			</output>
		</layer>
		<layer id="261" name="/backbone/stage2/unit1/Sub" type="Subtract" version="opset1">
			<data auto_broadcast="numpy" />
			<input>
				<port id="0" precision="I64" />
				<port id="1" precision="I64" />
			</input>
			<output>
				<port id="2" precision="I64" names="/backbone/stage2/unit1/Sub_output_0" />
			</output>
		</layer>
		<layer id="262" name="/backbone/stage2/unit1/Constant_4" type="Const" version="opset1">
			<data element_type="i64" shape="" offset="84" size="8" />
			<output>
				<port id="0" precision="I64" names="/backbone/stage2/unit1/Constant_4_output_0" />
			</output>
		</layer>
		<layer id="263" name="/backbone/stage2/unit1/Div" type="Divide" version="opset1">
			<data auto_broadcast="numpy" m_pythondiv="true" />
			<input>
				<port id="0" precision="I64" />
				<port id="1" precision="I64" />
			</input>
			<output>
				<port id="2" precision="I64" names="/backbone/stage2/unit1/Cast_1_output_0,/backbone/stage2/unit1/Cast_output_0,/backbone/stage2/unit1/Div_output_0" />
			</output>
		</layer>
		<layer id="264" name="Constant_1219" type="Const" version="opset1">
			<data element_type="i64" shape="1" offset="0" size="8" />
			<output>
				<port id="0" precision="I64">
					<dim>1</dim>
				</port>
			</output>
		</layer>
		<layer id="265" name="/backbone/stage2/unit1/Unsqueeze_4" type="Unsqueeze" version="opset1">
			<input>
				<port id="0" precision="I64" />
				<port id="1" precision="I64">
					<dim>1</dim>
				</port>
			</input>
			<output>
				<port id="2" precision="I64" names="/backbone/stage2/unit1/Unsqueeze_4_output_0">
					<dim>1</dim>
				</port>
			</output>
		</layer>
		<layer id="266" name="/backbone/stage2/unit1/Sub_2" type="Subtract" version="opset1">
			<data auto_broadcast="numpy" />
			<input>
				<port id="0" precision="I64" />
				<port id="1" precision="I64" />
			</input>
			<output>
				<port id="2" precision="I64" names="/backbone/stage2/unit1/Sub_2_output_0" />
			</output>
		</layer>
		<layer id="267" name="Constant_1221" type="Const" version="opset1">
			<data element_type="i64" shape="1" offset="0" size="8" />
			<output>
				<port id="0" precision="I64">
					<dim>1</dim>
				</port>
			</output>
		</layer>
		<layer id="268" name="/backbone/stage2/unit1/Unsqueeze_5" type="Unsqueeze" version="opset1">
			<input>
				<port id="0" precision="I64" />
				<port id="1" precision="I64">
					<dim>1</dim>
				</port>
			</input>
			<output>
				<port id="2" precision="I64" names="/backbone/stage2/unit1/Unsqueeze_5_output_0">
					<dim>1</dim>
				</port>
			</output>
		</layer>
		<layer id="269" name="/backbone/stage2/unit1/Constant_3" type="Const" version="opset1">
			<data element_type="i64" shape="" offset="9352" size="8" />
			<output>
				<port id="0" precision="I64" names="/backbone/stage2/unit1/Constant_3_output_0" />
			</output>
		</layer>
		<layer id="270" name="/backbone/stage2/unit1/Constant_1" type="Const" version="opset1">
			<data element_type="i64" shape="" offset="92" size="8" />
			<output>
				<port id="0" precision="I64" names="/backbone/stage2/unit1/Constant_1_output_0" />
			</output>
		</layer>
		<layer id="271" name="Constant_1194" type="Const" version="opset1">
			<data element_type="i64" shape="" offset="0" size="8" />
			<output>
				<port id="0" precision="I64" />
			</output>
		</layer>
		<layer id="272" name="/backbone/stage2/unit1/Gather_1" type="Gather" version="opset8">
			<data batch_dims="0" />
			<input>
				<port id="0" precision="I64">
					<dim>4</dim>
				</port>
				<port id="1" precision="I64" />
				<port id="2" precision="I64" />
			</input>
			<output>
				<port id="3" precision="I64" names="/backbone/stage2/unit1/Gather_1_output_0" />
			</output>
		</layer>
		<layer id="273" name="/backbone/stage2/unit1/Sub_1" type="Subtract" version="opset1">
			<data auto_broadcast="numpy" />
			<input>
				<port id="0" precision="I64" />
				<port id="1" precision="I64" />
			</input>
			<output>
				<port id="2" precision="I64" names="/backbone/stage2/unit1/Sub_1_output_0" />
			</output>
		</layer>
		<layer id="274" name="/backbone/stage2/unit1/Constant_5" type="Const" version="opset1">
			<data element_type="i64" shape="" offset="84" size="8" />
			<output>
				<port id="0" precision="I64" names="/backbone/stage2/unit1/Constant_5_output_0" />
			</output>
		</layer>
		<layer id="275" name="/backbone/stage2/unit1/Div_1" type="Divide" version="opset1">
			<data auto_broadcast="numpy" m_pythondiv="true" />
			<input>
				<port id="0" precision="I64" />
				<port id="1" precision="I64" />
			</input>
			<output>
				<port id="2" precision="I64" names="/backbone/stage2/unit1/Cast_2_output_0,/backbone/stage2/unit1/Cast_3_output_0,/backbone/stage2/unit1/Div_1_output_0" />
			</output>
		</layer>
		<layer id="276" name="Constant_1223" type="Const" version="opset1">
			<data element_type="i64" shape="1" offset="0" size="8" />
			<output>
				<port id="0" precision="I64">
					<dim>1</dim>
				</port>
			</output>
		</layer>
		<layer id="277" name="/backbone/stage2/unit1/Unsqueeze_6" type="Unsqueeze" version="opset1">
			<input>
				<port id="0" precision="I64" />
				<port id="1" precision="I64">
					<dim>1</dim>
				</port>
			</input>
			<output>
				<port id="2" precision="I64" names="/backbone/stage2/unit1/Unsqueeze_6_output_0">
					<dim>1</dim>
				</port>
			</output>
		</layer>
		<layer id="278" name="/backbone/stage2/unit1/Sub_3" type="Subtract" version="opset1">
			<data auto_broadcast="numpy" />
			<input>
				<port id="0" precision="I64" />
				<port id="1" precision="I64" />
			</input>
			<output>
				<port id="2" precision="I64" names="/backbone/stage2/unit1/Sub_3_output_0" />
			</output>
		</layer>
		<layer id="279" name="Constant_1225" type="Const" version="opset1">
			<data element_type="i64" shape="1" offset="0" size="8" />
			<output>
				<port id="0" precision="I64">
					<dim>1</dim>
				</port>
			</output>
		</layer>
		<layer id="280" name="/backbone/stage2/unit1/Unsqueeze_7" type="Unsqueeze" version="opset1">
			<input>
				<port id="0" precision="I64" />
				<port id="1" precision="I64">
					<dim>1</dim>
				</port>
			</input>
			<output>
				<port id="2" precision="I64" names="/backbone/stage2/unit1/Unsqueeze_7_output_0">
					<dim>1</dim>
				</port>
			</output>
		</layer>
		<layer id="281" name="/backbone/stage2/unit1/Concat_1" type="Concat" version="opset1">
			<data axis="0" />
			<input>
				<port id="0" precision="I64">
					<dim>1</dim>
				</port>
				<port id="1" precision="I64">
					<dim>1</dim>
				</port>
				<port id="2" precision="I64">
					<dim>1</dim>
				</port>
				<port id="3" precision="I64">
					<dim>1</dim>
				</port>
			</input>
			<output>
				<port id="4" precision="I64" names="/backbone/stage2/unit1/Cast_4_output_0,/backbone/stage2/unit1/Concat_1_output_0">
					<dim>4</dim>
				</port>
			</output>
		</layer>
		<layer id="282" name="/backbone/stage2/unit1/ConstantOfShape" type="Const" version="opset1">
			<data element_type="i64" shape="4" offset="100" size="32" />
			<output>
				<port id="0" precision="I64" names="/backbone/stage2/unit1/ConstantOfShape_output_0">
					<dim>4</dim>
				</port>
			</output>
		</layer>
		<layer id="283" name="/backbone/stage2/unit1/Concat_2" type="Concat" version="opset1">
			<data axis="0" />
			<input>
				<port id="0" precision="I64">
					<dim>4</dim>
				</port>
				<port id="1" precision="I64">
					<dim>4</dim>
				</port>
			</input>
			<output>
				<port id="2" precision="I64" names="/backbone/stage2/unit1/Concat_2_output_0">
					<dim>8</dim>
				</port>
			</output>
		</layer>
		<layer id="284" name="/backbone/stage2/unit1/Constant_8" type="Const" version="opset1">
			<data element_type="i64" shape="2" offset="132" size="16" />
			<output>
				<port id="0" precision="I64" names="/backbone/stage2/unit1/Constant_8_output_0">
					<dim>2</dim>
				</port>
			</output>
		</layer>
		<layer id="285" name="/backbone/stage2/unit1/Reshape" type="Reshape" version="opset1">
			<data special_zero="true" />
			<input>
				<port id="0" precision="I64">
					<dim>8</dim>
				</port>
				<port id="1" precision="I64">
					<dim>2</dim>
				</port>
			</input>
			<output>
				<port id="2" precision="I64" names="/backbone/stage2/unit1/Reshape_output_0">
					<dim>4</dim>
					<dim>2</dim>
				</port>
			</output>
		</layer>
		<layer id="286" name="/backbone/stage2/unit1/Constant_10" type="Const" version="opset1">
			<data element_type="i64" shape="1" offset="148" size="8" />
			<output>
				<port id="0" precision="I64" names="/backbone/stage2/unit1/Constant_10_output_0">
					<dim>1</dim>
				</port>
			</output>
		</layer>
		<layer id="287" name="/backbone/stage2/unit1/Constant_11" type="Const" version="opset1">
			<data element_type="i64" shape="1" offset="156" size="8" />
			<output>
				<port id="0" precision="I64" names="/backbone/stage2/unit1/Constant_11_output_0">
					<dim>1</dim>
				</port>
			</output>
		</layer>
		<layer id="288" name="/backbone/stage2/unit1/Constant_12" type="Const" version="opset1">
			<data element_type="i64" shape="1" offset="148" size="8" />
			<output>
				<port id="0" precision="I64" names="/backbone/stage2/unit1/Constant_12_output_0">
					<dim>1</dim>
				</port>
			</output>
		</layer>
		<layer id="289" name="/backbone/stage2/unit1/Slice" type="StridedSlice" version="opset1">
			<data begin_mask="0" end_mask="0" new_axis_mask="" shrink_axis_mask="" ellipsis_mask="" />
			<input>
				<port id="0" precision="I64">
					<dim>4</dim>
					<dim>2</dim>
				</port>
				<port id="1" precision="I64">
					<dim>1</dim>
				</port>
				<port id="2" precision="I64">
					<dim>1</dim>
				</port>
				<port id="3" precision="I64">
					<dim>1</dim>
				</port>
			</input>
			<output>
				<port id="4" precision="I64" names="/backbone/stage2/unit1/Slice_output_0">
					<dim>4</dim>
					<dim>2</dim>
				</port>
			</output>
		</layer>
		<layer id="290" name="Constant_1250" type="Const" version="opset1">
			<data element_type="i64" shape="2" offset="164" size="16" />
			<output>
				<port id="0" precision="I64">
					<dim>2</dim>
				</port>
			</output>
		</layer>
		<layer id="291" name="/backbone/stage2/unit1/Transpose" type="Transpose" version="opset1">
			<input>
				<port id="0" precision="I64">
					<dim>4</dim>
					<dim>2</dim>
				</port>
				<port id="1" precision="I64">
					<dim>2</dim>
				</port>
			</input>
			<output>
				<port id="2" precision="I64" names="/backbone/stage2/unit1/Transpose_output_0">
					<dim>2</dim>
					<dim>4</dim>
				</port>
			</output>
		</layer>
		<layer id="292" name="Constant_53005" type="Const" version="opset1">
			<data element_type="i64" shape="1" offset="148" size="8" />
			<output>
				<port id="0" precision="I64">
					<dim>1</dim>
				</port>
			</output>
		</layer>
		<layer id="293" name="/backbone/stage2/unit1/Reshape_1" type="Reshape" version="opset1">
			<data special_zero="true" />
			<input>
				<port id="0" precision="I64">
					<dim>2</dim>
					<dim>4</dim>
				</port>
				<port id="1" precision="I64">
					<dim>1</dim>
				</port>
			</input>
			<output>
				<port id="2" precision="I64" names="/backbone/stage2/unit1/Cast_5_output_0,/backbone/stage2/unit1/Reshape_1_output_0">
					<dim>8</dim>
				</port>
			</output>
		</layer>
		<layer id="294" name="Constant_1259" type="Const" version="opset1">
			<data element_type="i64" shape="" offset="0" size="8" />
			<output>
				<port id="0" precision="I64" />
			</output>
		</layer>
		<layer id="295" name="Split_1260" type="Split" version="opset1">
			<data num_splits="2" />
			<input>
				<port id="0" precision="I64">
					<dim>8</dim>
				</port>
				<port id="1" precision="I64" />
			</input>
			<output>
				<port id="2" precision="I64">
					<dim>4</dim>
				</port>
				<port id="3" precision="I64">
					<dim>4</dim>
				</port>
			</output>
		</layer>
		<layer id="296" name="Constant_1258" type="Const" version="opset1">
			<data element_type="f32" shape="" offset="180" size="4" />
			<output>
				<port id="0" precision="FP32" />
			</output>
		</layer>
		<layer id="297" name="/backbone/stage2/unit1/Pad" type="Pad" version="opset1">
			<data pad_mode="constant" />
			<input>
				<port id="0" precision="FP32">
					<dim>-1</dim>
					<dim>96</dim>
					<dim>256</dim>
					<dim>256</dim>
				</port>
				<port id="1" precision="I64">
					<dim>4</dim>
				</port>
				<port id="2" precision="I64">
					<dim>4</dim>
				</port>
				<port id="3" precision="FP32" />
			</input>
			<output>
				<port id="4" precision="FP32" names="/backbone/stage2/unit1/Pad_output_0">
					<dim>-1</dim>
					<dim>96</dim>
					<dim>257</dim>
					<dim>257</dim>
				</port>
			</output>
		</layer>
		<layer id="298" name="Reshape_1403" type="Const" version="opset1">
			<data element_type="i8" shape="96, 1, 1, 3, 3" offset="9360" size="864" />
			<output>
				<port id="0" precision="I8">
					<dim>96</dim>
					<dim>1</dim>
					<dim>1</dim>
					<dim>3</dim>
					<dim>3</dim>
				</port>
			</output>
		</layer>
		<layer id="299" name="Convert_943124" type="Convert" version="opset1">
			<data destination_type="f32" />
			<input>
				<port id="0" precision="I8">
					<dim>96</dim>
					<dim>1</dim>
					<dim>1</dim>
					<dim>3</dim>
					<dim>3</dim>
				</port>
			</input>
			<output>
				<port id="1" precision="FP32">
					<dim>96</dim>
					<dim>1</dim>
					<dim>1</dim>
					<dim>3</dim>
					<dim>3</dim>
				</port>
			</output>
		</layer>
		<layer id="300" name="Constant_943022" type="Const" version="opset1">
			<data element_type="f32" shape="96, 1, 1, 1, 1" offset="10224" size="384" />
			<output>
				<port id="0" precision="FP32">
					<dim>96</dim>
					<dim>1</dim>
					<dim>1</dim>
					<dim>1</dim>
					<dim>1</dim>
				</port>
			</output>
		</layer>
		<layer id="301" name="/backbone/stage2/unit1/conv2/conv/Conv/WithoutBiases/fq_weights_1" type="Multiply" version="opset1">
			<data auto_broadcast="numpy" />
			<input>
				<port id="0" precision="FP32">
					<dim>96</dim>
					<dim>1</dim>
					<dim>1</dim>
					<dim>3</dim>
					<dim>3</dim>
				</port>
				<port id="1" precision="FP32">
					<dim>96</dim>
					<dim>1</dim>
					<dim>1</dim>
					<dim>1</dim>
					<dim>1</dim>
				</port>
			</input>
			<output>
				<port id="2" precision="FP32">
					<dim>96</dim>
					<dim>1</dim>
					<dim>1</dim>
					<dim>3</dim>
					<dim>3</dim>
				</port>
			</output>
		</layer>
		<layer id="302" name="/backbone/stage2/unit1/conv2/conv/Conv/WithoutBiases" type="GroupConvolution" version="opset1">
			<data strides="2, 2" pads_begin="0, 0" pads_end="0, 0" dilations="1, 1" auto_pad="explicit" />
			<input>
				<port id="0" precision="FP32">
					<dim>-1</dim>
					<dim>96</dim>
					<dim>257</dim>
					<dim>257</dim>
				</port>
				<port id="1" precision="FP32">
					<dim>96</dim>
					<dim>1</dim>
					<dim>1</dim>
					<dim>3</dim>
					<dim>3</dim>
				</port>
			</input>
			<output>
				<port id="2" precision="FP32">
					<dim>-1</dim>
					<dim>96</dim>
					<dim>128</dim>
					<dim>128</dim>
				</port>
			</output>
		</layer>
		<layer id="303" name="Reshape_1455" type="Const" version="opset1">
			<data element_type="f32" shape="1, 96, 1, 1" offset="10608" size="384" />
			<output>
				<port id="0" precision="FP32">
					<dim>1</dim>
					<dim>96</dim>
					<dim>1</dim>
					<dim>1</dim>
				</port>
			</output>
		</layer>
		<layer id="304" name="/backbone/stage2/unit1/conv2/conv/Conv" type="Add" version="opset1">
			<data auto_broadcast="numpy" />
			<input>
				<port id="0" precision="FP32">
					<dim>-1</dim>
					<dim>96</dim>
					<dim>128</dim>
					<dim>128</dim>
				</port>
				<port id="1" precision="FP32">
					<dim>1</dim>
					<dim>96</dim>
					<dim>1</dim>
					<dim>1</dim>
				</port>
			</input>
			<output>
				<port id="2" precision="FP32" names="/backbone/stage2/unit1/conv2/conv/Conv_output_0">
					<dim>-1</dim>
					<dim>96</dim>
					<dim>128</dim>
					<dim>128</dim>
				</port>
			</output>
		</layer>
		<layer id="305" name="/backbone/stage2/unit1/conv2/activ/Mul" type="Swish" version="opset4">
			<input>
				<port id="0" precision="FP32">
					<dim>-1</dim>
					<dim>96</dim>
					<dim>128</dim>
					<dim>128</dim>
				</port>
			</input>
			<output>
				<port id="1" precision="FP32" names="/backbone/stage2/unit1/conv2/activ/Mul_output_0">
					<dim>-1</dim>
					<dim>96</dim>
					<dim>128</dim>
					<dim>128</dim>
				</port>
			</output>
		</layer>
		<layer id="306" name="Constant_331135" type="Const" version="opset1">
			<data element_type="f32" shape="" offset="10992" size="4" />
			<output>
				<port id="0" precision="FP32" />
			</output>
		</layer>
		<layer id="307" name="Constant_331136" type="Const" version="opset1">
			<data element_type="f32" shape="" offset="10996" size="4" />
			<output>
				<port id="0" precision="FP32" />
			</output>
		</layer>
		<layer id="308" name="Constant_331137" type="Const" version="opset1">
			<data element_type="f32" shape="" offset="10992" size="4" />
			<output>
				<port id="0" precision="FP32" />
			</output>
		</layer>
		<layer id="309" name="Constant_331138" type="Const" version="opset1">
			<data element_type="f32" shape="" offset="10996" size="4" />
			<output>
				<port id="0" precision="FP32" />
			</output>
		</layer>
		<layer id="310" name="/backbone/stage2/unit1/conv2/activ/Mul/fq_output_0" type="FakeQuantize" version="opset1">
			<data levels="256" auto_broadcast="numpy" />
			<input>
				<port id="0" precision="FP32">
					<dim>-1</dim>
					<dim>96</dim>
					<dim>128</dim>
					<dim>128</dim>
				</port>
				<port id="1" precision="FP32" />
				<port id="2" precision="FP32" />
				<port id="3" precision="FP32" />
				<port id="4" precision="FP32" />
			</input>
			<output>
				<port id="5" precision="FP32">
					<dim>-1</dim>
					<dim>96</dim>
					<dim>128</dim>
					<dim>128</dim>
				</port>
			</output>
		</layer>
		<layer id="311" name="Range_1467" type="Const" version="opset1">
			<data element_type="i64" shape="2" offset="2120" size="16" />
			<output>
				<port id="0" precision="I64">
					<dim>2</dim>
				</port>
			</output>
		</layer>
		<layer id="312" name="/backbone/stage2/unit1/se/pool/GlobalAveragePool" type="ReduceMean" version="opset1">
			<data keep_dims="true" />
			<input>
				<port id="0" precision="FP32">
					<dim>-1</dim>
					<dim>96</dim>
					<dim>128</dim>
					<dim>128</dim>
				</port>
				<port id="1" precision="I64">
					<dim>2</dim>
				</port>
			</input>
			<output>
				<port id="2" precision="FP32" names="/backbone/stage2/unit1/se/pool/GlobalAveragePool_output_0">
					<dim>-1</dim>
					<dim>96</dim>
					<dim>1</dim>
					<dim>1</dim>
				</port>
			</output>
		</layer>
		<layer id="313" name="backbone.features.stage2.unit1.se.conv1.weight" type="Const" version="opset1">
			<data element_type="f32" shape="4, 96, 1, 1" offset="11000" size="1536" />
			<output>
				<port id="0" precision="FP32" names="backbone.features.stage2.unit1.se.conv1.weight">
					<dim>4</dim>
					<dim>96</dim>
					<dim>1</dim>
					<dim>1</dim>
				</port>
			</output>
		</layer>
		<layer id="314" name="/backbone/stage2/unit1/se/conv1/Conv/WithoutBiases" type="Convolution" version="opset1">
			<data strides="1, 1" dilations="1, 1" pads_begin="0, 0" pads_end="0, 0" auto_pad="explicit" />
			<input>
				<port id="0" precision="FP32">
					<dim>-1</dim>
					<dim>96</dim>
					<dim>1</dim>
					<dim>1</dim>
				</port>
				<port id="1" precision="FP32">
					<dim>4</dim>
					<dim>96</dim>
					<dim>1</dim>
					<dim>1</dim>
				</port>
			</input>
			<output>
				<port id="2" precision="FP32">
					<dim>-1</dim>
					<dim>4</dim>
					<dim>1</dim>
					<dim>1</dim>
				</port>
			</output>
		</layer>
		<layer id="315" name="Reshape_1482" type="Const" version="opset1">
			<data element_type="f32" shape="1, 4, 1, 1" offset="12536" size="16" />
			<output>
				<port id="0" precision="FP32">
					<dim>1</dim>
					<dim>4</dim>
					<dim>1</dim>
					<dim>1</dim>
				</port>
			</output>
		</layer>
		<layer id="316" name="/backbone/stage2/unit1/se/conv1/Conv" type="Add" version="opset1">
			<data auto_broadcast="numpy" />
			<input>
				<port id="0" precision="FP32">
					<dim>-1</dim>
					<dim>4</dim>
					<dim>1</dim>
					<dim>1</dim>
				</port>
				<port id="1" precision="FP32">
					<dim>1</dim>
					<dim>4</dim>
					<dim>1</dim>
					<dim>1</dim>
				</port>
			</input>
			<output>
				<port id="2" precision="FP32" names="/backbone/stage2/unit1/se/conv1/Conv_output_0">
					<dim>-1</dim>
					<dim>4</dim>
					<dim>1</dim>
					<dim>1</dim>
				</port>
			</output>
		</layer>
		<layer id="317" name="/backbone/stage2/unit1/se/activ/Mul" type="Swish" version="opset4">
			<input>
				<port id="0" precision="FP32">
					<dim>-1</dim>
					<dim>4</dim>
					<dim>1</dim>
					<dim>1</dim>
				</port>
			</input>
			<output>
				<port id="1" precision="FP32" names="/backbone/stage2/unit1/se/activ/Mul_output_0">
					<dim>-1</dim>
					<dim>4</dim>
					<dim>1</dim>
					<dim>1</dim>
				</port>
			</output>
		</layer>
		<layer id="318" name="backbone.features.stage2.unit1.se.conv2.weight" type="Const" version="opset1">
			<data element_type="f32" shape="96, 4, 1, 1" offset="12552" size="1536" />
			<output>
				<port id="0" precision="FP32" names="backbone.features.stage2.unit1.se.conv2.weight">
					<dim>96</dim>
					<dim>4</dim>
					<dim>1</dim>
					<dim>1</dim>
				</port>
			</output>
		</layer>
		<layer id="319" name="/backbone/stage2/unit1/se/conv2/Conv/WithoutBiases" type="Convolution" version="opset1">
			<data strides="1, 1" dilations="1, 1" pads_begin="0, 0" pads_end="0, 0" auto_pad="explicit" />
			<input>
				<port id="0" precision="FP32">
					<dim>-1</dim>
					<dim>4</dim>
					<dim>1</dim>
					<dim>1</dim>
				</port>
				<port id="1" precision="FP32">
					<dim>96</dim>
					<dim>4</dim>
					<dim>1</dim>
					<dim>1</dim>
				</port>
			</input>
			<output>
				<port id="2" precision="FP32">
					<dim>-1</dim>
					<dim>96</dim>
					<dim>1</dim>
					<dim>1</dim>
				</port>
			</output>
		</layer>
		<layer id="320" name="Reshape_1499" type="Const" version="opset1">
			<data element_type="f32" shape="1, 96, 1, 1" offset="14088" size="384" />
			<output>
				<port id="0" precision="FP32">
					<dim>1</dim>
					<dim>96</dim>
					<dim>1</dim>
					<dim>1</dim>
				</port>
			</output>
		</layer>
		<layer id="321" name="/backbone/stage2/unit1/se/conv2/Conv" type="Add" version="opset1">
			<data auto_broadcast="numpy" />
			<input>
				<port id="0" precision="FP32">
					<dim>-1</dim>
					<dim>96</dim>
					<dim>1</dim>
					<dim>1</dim>
				</port>
				<port id="1" precision="FP32">
					<dim>1</dim>
					<dim>96</dim>
					<dim>1</dim>
					<dim>1</dim>
				</port>
			</input>
			<output>
				<port id="2" precision="FP32" names="/backbone/stage2/unit1/se/conv2/Conv_output_0">
					<dim>-1</dim>
					<dim>96</dim>
					<dim>1</dim>
					<dim>1</dim>
				</port>
			</output>
		</layer>
		<layer id="322" name="/backbone/stage2/unit1/se/sigmoid/Sigmoid" type="Sigmoid" version="opset1">
			<input>
				<port id="0" precision="FP32">
					<dim>-1</dim>
					<dim>96</dim>
					<dim>1</dim>
					<dim>1</dim>
				</port>
			</input>
			<output>
				<port id="1" precision="FP32" names="/backbone/stage2/unit1/se/sigmoid/Sigmoid_output_0">
					<dim>-1</dim>
					<dim>96</dim>
					<dim>1</dim>
					<dim>1</dim>
				</port>
			</output>
		</layer>
		<layer id="323" name="/backbone/stage2/unit1/se/Mul" type="Multiply" version="opset1">
			<data auto_broadcast="numpy" />
			<input>
				<port id="0" precision="FP32">
					<dim>-1</dim>
					<dim>96</dim>
					<dim>128</dim>
					<dim>128</dim>
				</port>
				<port id="1" precision="FP32">
					<dim>-1</dim>
					<dim>96</dim>
					<dim>1</dim>
					<dim>1</dim>
				</port>
			</input>
			<output>
				<port id="2" precision="FP32" names="/backbone/stage2/unit1/se/Mul_output_0">
					<dim>-1</dim>
					<dim>96</dim>
					<dim>128</dim>
					<dim>128</dim>
				</port>
			</output>
		</layer>
		<layer id="324" name="Constant_331140" type="Const" version="opset1">
			<data element_type="f32" shape="" offset="14472" size="4" />
			<output>
				<port id="0" precision="FP32" />
			</output>
		</layer>
		<layer id="325" name="Constant_331141" type="Const" version="opset1">
			<data element_type="f32" shape="" offset="14476" size="4" />
			<output>
				<port id="0" precision="FP32" />
			</output>
		</layer>
		<layer id="326" name="Constant_331142" type="Const" version="opset1">
			<data element_type="f32" shape="" offset="14472" size="4" />
			<output>
				<port id="0" precision="FP32" />
			</output>
		</layer>
		<layer id="327" name="Constant_331143" type="Const" version="opset1">
			<data element_type="f32" shape="" offset="14476" size="4" />
			<output>
				<port id="0" precision="FP32" />
			</output>
		</layer>
		<layer id="328" name="/backbone/stage2/unit1/se/Mul/fq_output_0" type="FakeQuantize" version="opset1">
			<data levels="256" auto_broadcast="numpy" />
			<input>
				<port id="0" precision="FP32">
					<dim>-1</dim>
					<dim>96</dim>
					<dim>128</dim>
					<dim>128</dim>
				</port>
				<port id="1" precision="FP32" />
				<port id="2" precision="FP32" />
				<port id="3" precision="FP32" />
				<port id="4" precision="FP32" />
			</input>
			<output>
				<port id="5" precision="FP32">
					<dim>-1</dim>
					<dim>96</dim>
					<dim>128</dim>
					<dim>128</dim>
				</port>
			</output>
		</layer>
		<layer id="329" name="onnx::Conv_3809" type="Const" version="opset1">
			<data element_type="i8" shape="24, 96, 1, 1" offset="14480" size="2304" />
			<output>
				<port id="0" precision="I8">
					<dim>24</dim>
					<dim>96</dim>
					<dim>1</dim>
					<dim>1</dim>
				</port>
			</output>
		</layer>
		<layer id="330" name="Convert_943278" type="Convert" version="opset1">
			<data destination_type="f32" />
			<input>
				<port id="0" precision="I8">
					<dim>24</dim>
					<dim>96</dim>
					<dim>1</dim>
					<dim>1</dim>
				</port>
			</input>
			<output>
				<port id="1" precision="FP32">
					<dim>24</dim>
					<dim>96</dim>
					<dim>1</dim>
					<dim>1</dim>
				</port>
			</output>
		</layer>
		<layer id="331" name="Constant_943176" type="Const" version="opset1">
			<data element_type="f32" shape="24, 1, 1, 1" offset="16784" size="96" />
			<output>
				<port id="0" precision="FP32">
					<dim>24</dim>
					<dim>1</dim>
					<dim>1</dim>
					<dim>1</dim>
				</port>
			</output>
		</layer>
		<layer id="332" name="/backbone/stage2/unit1/conv3/conv/Conv/WithoutBiases/fq_weights_1" type="Multiply" version="opset1">
			<data auto_broadcast="numpy" />
			<input>
				<port id="0" precision="FP32">
					<dim>24</dim>
					<dim>96</dim>
					<dim>1</dim>
					<dim>1</dim>
				</port>
				<port id="1" precision="FP32">
					<dim>24</dim>
					<dim>1</dim>
					<dim>1</dim>
					<dim>1</dim>
				</port>
			</input>
			<output>
				<port id="2" precision="FP32">
					<dim>24</dim>
					<dim>96</dim>
					<dim>1</dim>
					<dim>1</dim>
				</port>
			</output>
		</layer>
		<layer id="333" name="/backbone/stage2/unit1/conv3/conv/Conv/WithoutBiases" type="Convolution" version="opset1">
			<data strides="1, 1" dilations="1, 1" pads_begin="0, 0" pads_end="0, 0" auto_pad="explicit" />
			<input>
				<port id="0" precision="FP32">
					<dim>-1</dim>
					<dim>96</dim>
					<dim>128</dim>
					<dim>128</dim>
				</port>
				<port id="1" precision="FP32">
					<dim>24</dim>
					<dim>96</dim>
					<dim>1</dim>
					<dim>1</dim>
				</port>
			</input>
			<output>
				<port id="2" precision="FP32">
					<dim>-1</dim>
					<dim>24</dim>
					<dim>128</dim>
					<dim>128</dim>
				</port>
			</output>
		</layer>
		<layer id="334" name="Reshape_1516" type="Const" version="opset1">
			<data element_type="f32" shape="1, 24, 1, 1" offset="16880" size="96" />
			<output>
				<port id="0" precision="FP32">
					<dim>1</dim>
					<dim>24</dim>
					<dim>1</dim>
					<dim>1</dim>
				</port>
			</output>
		</layer>
		<layer id="335" name="/backbone/stage2/unit1/conv3/conv/Conv" type="Add" version="opset1">
			<data auto_broadcast="numpy" />
			<input>
				<port id="0" precision="FP32">
					<dim>-1</dim>
					<dim>24</dim>
					<dim>128</dim>
					<dim>128</dim>
				</port>
				<port id="1" precision="FP32">
					<dim>1</dim>
					<dim>24</dim>
					<dim>1</dim>
					<dim>1</dim>
				</port>
			</input>
			<output>
				<port id="2" precision="FP32" names="/backbone/stage2/unit1/conv3/conv/Conv_output_0">
					<dim>-1</dim>
					<dim>24</dim>
					<dim>128</dim>
					<dim>128</dim>
				</port>
			</output>
		</layer>
		<layer id="336" name="Constant_331150" type="Const" version="opset1">
			<data element_type="f32" shape="" offset="16976" size="4" />
			<output>
				<port id="0" precision="FP32" />
			</output>
		</layer>
		<layer id="337" name="Constant_331151" type="Const" version="opset1">
			<data element_type="f32" shape="" offset="16980" size="4" />
			<output>
				<port id="0" precision="FP32" />
			</output>
		</layer>
		<layer id="338" name="Constant_331152" type="Const" version="opset1">
			<data element_type="f32" shape="" offset="16976" size="4" />
			<output>
				<port id="0" precision="FP32" />
			</output>
		</layer>
		<layer id="339" name="Constant_331153" type="Const" version="opset1">
			<data element_type="f32" shape="" offset="16980" size="4" />
			<output>
				<port id="0" precision="FP32" />
			</output>
		</layer>
		<layer id="340" name="/backbone/stage2/unit1/conv3/conv/Conv/fq_output_0" type="FakeQuantize" version="opset1">
			<data levels="256" auto_broadcast="numpy" />
			<input>
				<port id="0" precision="FP32">
					<dim>-1</dim>
					<dim>24</dim>
					<dim>128</dim>
					<dim>128</dim>
				</port>
				<port id="1" precision="FP32" />
				<port id="2" precision="FP32" />
				<port id="3" precision="FP32" />
				<port id="4" precision="FP32" />
			</input>
			<output>
				<port id="5" precision="FP32">
					<dim>-1</dim>
					<dim>24</dim>
					<dim>128</dim>
					<dim>128</dim>
				</port>
			</output>
		</layer>
		<layer id="341" name="onnx::Conv_3812" type="Const" version="opset1">
			<data element_type="i8" shape="144, 24, 1, 1" offset="16984" size="3456" />
			<output>
				<port id="0" precision="I8">
					<dim>144</dim>
					<dim>24</dim>
					<dim>1</dim>
					<dim>1</dim>
				</port>
			</output>
		</layer>
		<layer id="342" name="Convert_943432" type="Convert" version="opset1">
			<data destination_type="f32" />
			<input>
				<port id="0" precision="I8">
					<dim>144</dim>
					<dim>24</dim>
					<dim>1</dim>
					<dim>1</dim>
				</port>
			</input>
			<output>
				<port id="1" precision="FP32">
					<dim>144</dim>
					<dim>24</dim>
					<dim>1</dim>
					<dim>1</dim>
				</port>
			</output>
		</layer>
		<layer id="343" name="Constant_943330" type="Const" version="opset1">
			<data element_type="f32" shape="144, 1, 1, 1" offset="20440" size="576" />
			<output>
				<port id="0" precision="FP32">
					<dim>144</dim>
					<dim>1</dim>
					<dim>1</dim>
					<dim>1</dim>
				</port>
			</output>
		</layer>
		<layer id="344" name="/backbone/stage2/unit2/conv1/conv/Conv/WithoutBiases/fq_weights_1" type="Multiply" version="opset1">
			<data auto_broadcast="numpy" />
			<input>
				<port id="0" precision="FP32">
					<dim>144</dim>
					<dim>24</dim>
					<dim>1</dim>
					<dim>1</dim>
				</port>
				<port id="1" precision="FP32">
					<dim>144</dim>
					<dim>1</dim>
					<dim>1</dim>
					<dim>1</dim>
				</port>
			</input>
			<output>
				<port id="2" precision="FP32">
					<dim>144</dim>
					<dim>24</dim>
					<dim>1</dim>
					<dim>1</dim>
				</port>
			</output>
		</layer>
		<layer id="345" name="/backbone/stage2/unit2/conv1/conv/Conv/WithoutBiases" type="Convolution" version="opset1">
			<data strides="1, 1" dilations="1, 1" pads_begin="0, 0" pads_end="0, 0" auto_pad="explicit" />
			<input>
				<port id="0" precision="FP32">
					<dim>-1</dim>
					<dim>24</dim>
					<dim>128</dim>
					<dim>128</dim>
				</port>
				<port id="1" precision="FP32">
					<dim>144</dim>
					<dim>24</dim>
					<dim>1</dim>
					<dim>1</dim>
				</port>
			</input>
			<output>
				<port id="2" precision="FP32">
					<dim>-1</dim>
					<dim>144</dim>
					<dim>128</dim>
					<dim>128</dim>
				</port>
			</output>
		</layer>
		<layer id="346" name="Reshape_1531" type="Const" version="opset1">
			<data element_type="f32" shape="1, 144, 1, 1" offset="21016" size="576" />
			<output>
				<port id="0" precision="FP32">
					<dim>1</dim>
					<dim>144</dim>
					<dim>1</dim>
					<dim>1</dim>
				</port>
			</output>
		</layer>
		<layer id="347" name="/backbone/stage2/unit2/conv1/conv/Conv" type="Add" version="opset1">
			<data auto_broadcast="numpy" />
			<input>
				<port id="0" precision="FP32">
					<dim>-1</dim>
					<dim>144</dim>
					<dim>128</dim>
					<dim>128</dim>
				</port>
				<port id="1" precision="FP32">
					<dim>1</dim>
					<dim>144</dim>
					<dim>1</dim>
					<dim>1</dim>
				</port>
			</input>
			<output>
				<port id="2" precision="FP32" names="/backbone/stage2/unit2/conv1/conv/Conv_output_0">
					<dim>-1</dim>
					<dim>144</dim>
					<dim>128</dim>
					<dim>128</dim>
				</port>
			</output>
		</layer>
		<layer id="348" name="/backbone/stage2/unit2/conv1/activ/Mul" type="Swish" version="opset4">
			<input>
				<port id="0" precision="FP32">
					<dim>-1</dim>
					<dim>144</dim>
					<dim>128</dim>
					<dim>128</dim>
				</port>
			</input>
			<output>
				<port id="1" precision="FP32" names="/backbone/stage2/unit2/conv1/activ/Mul_output_0">
					<dim>-1</dim>
					<dim>144</dim>
					<dim>128</dim>
					<dim>128</dim>
				</port>
			</output>
		</layer>
		<layer id="349" name="Constant_331160" type="Const" version="opset1">
			<data element_type="f32" shape="1, 144, 1, 1" offset="21592" size="576" />
			<output>
				<port id="0" precision="FP32">
					<dim>1</dim>
					<dim>144</dim>
					<dim>1</dim>
					<dim>1</dim>
				</port>
			</output>
		</layer>
		<layer id="350" name="Constant_331161" type="Const" version="opset1">
			<data element_type="f32" shape="1, 144, 1, 1" offset="22168" size="576" />
			<output>
				<port id="0" precision="FP32">
					<dim>1</dim>
					<dim>144</dim>
					<dim>1</dim>
					<dim>1</dim>
				</port>
			</output>
		</layer>
		<layer id="351" name="Constant_331162" type="Const" version="opset1">
			<data element_type="f32" shape="1, 144, 1, 1" offset="21592" size="576" />
			<output>
				<port id="0" precision="FP32">
					<dim>1</dim>
					<dim>144</dim>
					<dim>1</dim>
					<dim>1</dim>
				</port>
			</output>
		</layer>
		<layer id="352" name="Constant_331163" type="Const" version="opset1">
			<data element_type="f32" shape="1, 144, 1, 1" offset="22168" size="576" />
			<output>
				<port id="0" precision="FP32">
					<dim>1</dim>
					<dim>144</dim>
					<dim>1</dim>
					<dim>1</dim>
				</port>
			</output>
		</layer>
		<layer id="353" name="/backbone/stage2/unit2/conv1/activ/Mul/fq_output_0" type="FakeQuantize" version="opset1">
			<data levels="256" auto_broadcast="numpy" />
			<input>
				<port id="0" precision="FP32">
					<dim>-1</dim>
					<dim>144</dim>
					<dim>128</dim>
					<dim>128</dim>
				</port>
				<port id="1" precision="FP32">
					<dim>1</dim>
					<dim>144</dim>
					<dim>1</dim>
					<dim>1</dim>
				</port>
				<port id="2" precision="FP32">
					<dim>1</dim>
					<dim>144</dim>
					<dim>1</dim>
					<dim>1</dim>
				</port>
				<port id="3" precision="FP32">
					<dim>1</dim>
					<dim>144</dim>
					<dim>1</dim>
					<dim>1</dim>
				</port>
				<port id="4" precision="FP32">
					<dim>1</dim>
					<dim>144</dim>
					<dim>1</dim>
					<dim>1</dim>
				</port>
			</input>
			<output>
				<port id="5" precision="FP32">
					<dim>-1</dim>
					<dim>144</dim>
					<dim>128</dim>
					<dim>128</dim>
				</port>
			</output>
		</layer>
		<layer id="354" name="/backbone/stage2/unit2/Constant_2" type="Const" version="opset1">
			<data element_type="i64" shape="" offset="22744" size="8" />
			<output>
				<port id="0" precision="I64" names="/backbone/stage2/unit2/Constant_2_output_0" />
			</output>
		</layer>
		<layer id="355" name="/backbone/stage2/unit2/Shape" type="ShapeOf" version="opset3">
			<data output_type="i64" />
			<input>
				<port id="0" precision="FP32">
					<dim>-1</dim>
					<dim>144</dim>
					<dim>128</dim>
					<dim>128</dim>
				</port>
			</input>
			<output>
				<port id="1" precision="I64" names="/backbone/stage2/unit2/Shape_1_output_0,/backbone/stage2/unit2/Shape_output_0">
					<dim>4</dim>
				</port>
			</output>
		</layer>
		<layer id="356" name="/backbone/stage2/unit2/Constant" type="Const" version="opset1">
			<data element_type="i64" shape="" offset="84" size="8" />
			<output>
				<port id="0" precision="I64" names="/backbone/stage2/unit2/Constant_output_0" />
			</output>
		</layer>
		<layer id="357" name="Constant_1539" type="Const" version="opset1">
			<data element_type="i64" shape="" offset="0" size="8" />
			<output>
				<port id="0" precision="I64" />
			</output>
		</layer>
		<layer id="358" name="/backbone/stage2/unit2/Gather" type="Gather" version="opset8">
			<data batch_dims="0" />
			<input>
				<port id="0" precision="I64">
					<dim>4</dim>
				</port>
				<port id="1" precision="I64" />
				<port id="2" precision="I64" />
			</input>
			<output>
				<port id="3" precision="I64" names="/backbone/stage2/unit2/Gather_output_0" />
			</output>
		</layer>
		<layer id="359" name="/backbone/stage2/unit2/Sub" type="Subtract" version="opset1">
			<data auto_broadcast="numpy" />
			<input>
				<port id="0" precision="I64" />
				<port id="1" precision="I64" />
			</input>
			<output>
				<port id="2" precision="I64" names="/backbone/stage2/unit2/Sub_output_0" />
			</output>
		</layer>
		<layer id="360" name="/backbone/stage2/unit2/Constant_4" type="Const" version="opset1">
			<data element_type="i64" shape="" offset="84" size="8" />
			<output>
				<port id="0" precision="I64" names="/backbone/stage2/unit2/Constant_4_output_0" />
			</output>
		</layer>
		<layer id="361" name="/backbone/stage2/unit2/Div" type="Divide" version="opset1">
			<data auto_broadcast="numpy" m_pythondiv="true" />
			<input>
				<port id="0" precision="I64" />
				<port id="1" precision="I64" />
			</input>
			<output>
				<port id="2" precision="I64" names="/backbone/stage2/unit2/Cast_1_output_0,/backbone/stage2/unit2/Cast_output_0,/backbone/stage2/unit2/Div_output_0" />
			</output>
		</layer>
		<layer id="362" name="Constant_1568" type="Const" version="opset1">
			<data element_type="i64" shape="1" offset="0" size="8" />
			<output>
				<port id="0" precision="I64">
					<dim>1</dim>
				</port>
			</output>
		</layer>
		<layer id="363" name="/backbone/stage2/unit2/Unsqueeze_4" type="Unsqueeze" version="opset1">
			<input>
				<port id="0" precision="I64" />
				<port id="1" precision="I64">
					<dim>1</dim>
				</port>
			</input>
			<output>
				<port id="2" precision="I64" names="/backbone/stage2/unit2/Unsqueeze_4_output_0">
					<dim>1</dim>
				</port>
			</output>
		</layer>
		<layer id="364" name="/backbone/stage2/unit2/Sub_2" type="Subtract" version="opset1">
			<data auto_broadcast="numpy" />
			<input>
				<port id="0" precision="I64" />
				<port id="1" precision="I64" />
			</input>
			<output>
				<port id="2" precision="I64" names="/backbone/stage2/unit2/Sub_2_output_0" />
			</output>
		</layer>
		<layer id="365" name="Constant_1570" type="Const" version="opset1">
			<data element_type="i64" shape="1" offset="0" size="8" />
			<output>
				<port id="0" precision="I64">
					<dim>1</dim>
				</port>
			</output>
		</layer>
		<layer id="366" name="/backbone/stage2/unit2/Unsqueeze_5" type="Unsqueeze" version="opset1">
			<input>
				<port id="0" precision="I64" />
				<port id="1" precision="I64">
					<dim>1</dim>
				</port>
			</input>
			<output>
				<port id="2" precision="I64" names="/backbone/stage2/unit2/Unsqueeze_5_output_0">
					<dim>1</dim>
				</port>
			</output>
		</layer>
		<layer id="367" name="/backbone/stage2/unit2/Constant_3" type="Const" version="opset1">
			<data element_type="i64" shape="" offset="22744" size="8" />
			<output>
				<port id="0" precision="I64" names="/backbone/stage2/unit2/Constant_3_output_0" />
			</output>
		</layer>
		<layer id="368" name="/backbone/stage2/unit2/Constant_1" type="Const" version="opset1">
			<data element_type="i64" shape="" offset="92" size="8" />
			<output>
				<port id="0" precision="I64" names="/backbone/stage2/unit2/Constant_1_output_0" />
			</output>
		</layer>
		<layer id="369" name="Constant_1543" type="Const" version="opset1">
			<data element_type="i64" shape="" offset="0" size="8" />
			<output>
				<port id="0" precision="I64" />
			</output>
		</layer>
		<layer id="370" name="/backbone/stage2/unit2/Gather_1" type="Gather" version="opset8">
			<data batch_dims="0" />
			<input>
				<port id="0" precision="I64">
					<dim>4</dim>
				</port>
				<port id="1" precision="I64" />
				<port id="2" precision="I64" />
			</input>
			<output>
				<port id="3" precision="I64" names="/backbone/stage2/unit2/Gather_1_output_0" />
			</output>
		</layer>
		<layer id="371" name="/backbone/stage2/unit2/Sub_1" type="Subtract" version="opset1">
			<data auto_broadcast="numpy" />
			<input>
				<port id="0" precision="I64" />
				<port id="1" precision="I64" />
			</input>
			<output>
				<port id="2" precision="I64" names="/backbone/stage2/unit2/Sub_1_output_0" />
			</output>
		</layer>
		<layer id="372" name="/backbone/stage2/unit2/Constant_5" type="Const" version="opset1">
			<data element_type="i64" shape="" offset="84" size="8" />
			<output>
				<port id="0" precision="I64" names="/backbone/stage2/unit2/Constant_5_output_0" />
			</output>
		</layer>
		<layer id="373" name="/backbone/stage2/unit2/Div_1" type="Divide" version="opset1">
			<data auto_broadcast="numpy" m_pythondiv="true" />
			<input>
				<port id="0" precision="I64" />
				<port id="1" precision="I64" />
			</input>
			<output>
				<port id="2" precision="I64" names="/backbone/stage2/unit2/Cast_2_output_0,/backbone/stage2/unit2/Cast_3_output_0,/backbone/stage2/unit2/Div_1_output_0" />
			</output>
		</layer>
		<layer id="374" name="Constant_1572" type="Const" version="opset1">
			<data element_type="i64" shape="1" offset="0" size="8" />
			<output>
				<port id="0" precision="I64">
					<dim>1</dim>
				</port>
			</output>
		</layer>
		<layer id="375" name="/backbone/stage2/unit2/Unsqueeze_6" type="Unsqueeze" version="opset1">
			<input>
				<port id="0" precision="I64" />
				<port id="1" precision="I64">
					<dim>1</dim>
				</port>
			</input>
			<output>
				<port id="2" precision="I64" names="/backbone/stage2/unit2/Unsqueeze_6_output_0">
					<dim>1</dim>
				</port>
			</output>
		</layer>
		<layer id="376" name="/backbone/stage2/unit2/Sub_3" type="Subtract" version="opset1">
			<data auto_broadcast="numpy" />
			<input>
				<port id="0" precision="I64" />
				<port id="1" precision="I64" />
			</input>
			<output>
				<port id="2" precision="I64" names="/backbone/stage2/unit2/Sub_3_output_0" />
			</output>
		</layer>
		<layer id="377" name="Constant_1574" type="Const" version="opset1">
			<data element_type="i64" shape="1" offset="0" size="8" />
			<output>
				<port id="0" precision="I64">
					<dim>1</dim>
				</port>
			</output>
		</layer>
		<layer id="378" name="/backbone/stage2/unit2/Unsqueeze_7" type="Unsqueeze" version="opset1">
			<input>
				<port id="0" precision="I64" />
				<port id="1" precision="I64">
					<dim>1</dim>
				</port>
			</input>
			<output>
				<port id="2" precision="I64" names="/backbone/stage2/unit2/Unsqueeze_7_output_0">
					<dim>1</dim>
				</port>
			</output>
		</layer>
		<layer id="379" name="/backbone/stage2/unit2/Concat_1" type="Concat" version="opset1">
			<data axis="0" />
			<input>
				<port id="0" precision="I64">
					<dim>1</dim>
				</port>
				<port id="1" precision="I64">
					<dim>1</dim>
				</port>
				<port id="2" precision="I64">
					<dim>1</dim>
				</port>
				<port id="3" precision="I64">
					<dim>1</dim>
				</port>
			</input>
			<output>
				<port id="4" precision="I64" names="/backbone/stage2/unit2/Cast_4_output_0,/backbone/stage2/unit2/Concat_1_output_0">
					<dim>4</dim>
				</port>
			</output>
		</layer>
		<layer id="380" name="/backbone/stage2/unit2/ConstantOfShape" type="Const" version="opset1">
			<data element_type="i64" shape="4" offset="100" size="32" />
			<output>
				<port id="0" precision="I64" names="/backbone/stage2/unit2/ConstantOfShape_output_0">
					<dim>4</dim>
				</port>
			</output>
		</layer>
		<layer id="381" name="/backbone/stage2/unit2/Concat_2" type="Concat" version="opset1">
			<data axis="0" />
			<input>
				<port id="0" precision="I64">
					<dim>4</dim>
				</port>
				<port id="1" precision="I64">
					<dim>4</dim>
				</port>
			</input>
			<output>
				<port id="2" precision="I64" names="/backbone/stage2/unit2/Concat_2_output_0">
					<dim>8</dim>
				</port>
			</output>
		</layer>
		<layer id="382" name="/backbone/stage2/unit2/Constant_8" type="Const" version="opset1">
			<data element_type="i64" shape="2" offset="132" size="16" />
			<output>
				<port id="0" precision="I64" names="/backbone/stage2/unit2/Constant_8_output_0">
					<dim>2</dim>
				</port>
			</output>
		</layer>
		<layer id="383" name="/backbone/stage2/unit2/Reshape" type="Reshape" version="opset1">
			<data special_zero="true" />
			<input>
				<port id="0" precision="I64">
					<dim>8</dim>
				</port>
				<port id="1" precision="I64">
					<dim>2</dim>
				</port>
			</input>
			<output>
				<port id="2" precision="I64" names="/backbone/stage2/unit2/Reshape_output_0">
					<dim>4</dim>
					<dim>2</dim>
				</port>
			</output>
		</layer>
		<layer id="384" name="/backbone/stage2/unit2/Constant_10" type="Const" version="opset1">
			<data element_type="i64" shape="1" offset="148" size="8" />
			<output>
				<port id="0" precision="I64" names="/backbone/stage2/unit2/Constant_10_output_0">
					<dim>1</dim>
				</port>
			</output>
		</layer>
		<layer id="385" name="/backbone/stage2/unit2/Constant_11" type="Const" version="opset1">
			<data element_type="i64" shape="1" offset="156" size="8" />
			<output>
				<port id="0" precision="I64" names="/backbone/stage2/unit2/Constant_11_output_0">
					<dim>1</dim>
				</port>
			</output>
		</layer>
		<layer id="386" name="/backbone/stage2/unit2/Constant_12" type="Const" version="opset1">
			<data element_type="i64" shape="1" offset="148" size="8" />
			<output>
				<port id="0" precision="I64" names="/backbone/stage2/unit2/Constant_12_output_0">
					<dim>1</dim>
				</port>
			</output>
		</layer>
		<layer id="387" name="/backbone/stage2/unit2/Slice" type="StridedSlice" version="opset1">
			<data begin_mask="0" end_mask="0" new_axis_mask="" shrink_axis_mask="" ellipsis_mask="" />
			<input>
				<port id="0" precision="I64">
					<dim>4</dim>
					<dim>2</dim>
				</port>
				<port id="1" precision="I64">
					<dim>1</dim>
				</port>
				<port id="2" precision="I64">
					<dim>1</dim>
				</port>
				<port id="3" precision="I64">
					<dim>1</dim>
				</port>
			</input>
			<output>
				<port id="4" precision="I64" names="/backbone/stage2/unit2/Slice_output_0">
					<dim>4</dim>
					<dim>2</dim>
				</port>
			</output>
		</layer>
		<layer id="388" name="Constant_1599" type="Const" version="opset1">
			<data element_type="i64" shape="2" offset="164" size="16" />
			<output>
				<port id="0" precision="I64">
					<dim>2</dim>
				</port>
			</output>
		</layer>
		<layer id="389" name="/backbone/stage2/unit2/Transpose" type="Transpose" version="opset1">
			<input>
				<port id="0" precision="I64">
					<dim>4</dim>
					<dim>2</dim>
				</port>
				<port id="1" precision="I64">
					<dim>2</dim>
				</port>
			</input>
			<output>
				<port id="2" precision="I64" names="/backbone/stage2/unit2/Transpose_output_0">
					<dim>2</dim>
					<dim>4</dim>
				</port>
			</output>
		</layer>
		<layer id="390" name="Constant_53006" type="Const" version="opset1">
			<data element_type="i64" shape="1" offset="148" size="8" />
			<output>
				<port id="0" precision="I64">
					<dim>1</dim>
				</port>
			</output>
		</layer>
		<layer id="391" name="/backbone/stage2/unit2/Reshape_1" type="Reshape" version="opset1">
			<data special_zero="true" />
			<input>
				<port id="0" precision="I64">
					<dim>2</dim>
					<dim>4</dim>
				</port>
				<port id="1" precision="I64">
					<dim>1</dim>
				</port>
			</input>
			<output>
				<port id="2" precision="I64" names="/backbone/stage2/unit2/Cast_5_output_0,/backbone/stage2/unit2/Reshape_1_output_0">
					<dim>8</dim>
				</port>
			</output>
		</layer>
		<layer id="392" name="Constant_1608" type="Const" version="opset1">
			<data element_type="i64" shape="" offset="0" size="8" />
			<output>
				<port id="0" precision="I64" />
			</output>
		</layer>
		<layer id="393" name="Split_1609" type="Split" version="opset1">
			<data num_splits="2" />
			<input>
				<port id="0" precision="I64">
					<dim>8</dim>
				</port>
				<port id="1" precision="I64" />
			</input>
			<output>
				<port id="2" precision="I64">
					<dim>4</dim>
				</port>
				<port id="3" precision="I64">
					<dim>4</dim>
				</port>
			</output>
		</layer>
		<layer id="394" name="Constant_1607" type="Const" version="opset1">
			<data element_type="f32" shape="" offset="180" size="4" />
			<output>
				<port id="0" precision="FP32" />
			</output>
		</layer>
		<layer id="395" name="/backbone/stage2/unit2/Pad" type="Pad" version="opset1">
			<data pad_mode="constant" />
			<input>
				<port id="0" precision="FP32">
					<dim>-1</dim>
					<dim>144</dim>
					<dim>128</dim>
					<dim>128</dim>
				</port>
				<port id="1" precision="I64">
					<dim>4</dim>
				</port>
				<port id="2" precision="I64">
					<dim>4</dim>
				</port>
				<port id="3" precision="FP32" />
			</input>
			<output>
				<port id="4" precision="FP32" names="/backbone/stage2/unit2/Pad_output_0">
					<dim>-1</dim>
					<dim>144</dim>
					<dim>130</dim>
					<dim>130</dim>
				</port>
			</output>
		</layer>
		<layer id="396" name="Reshape_1752" type="Const" version="opset1">
			<data element_type="i8" shape="144, 1, 1, 3, 3" offset="22752" size="1296" />
			<output>
				<port id="0" precision="I8">
					<dim>144</dim>
					<dim>1</dim>
					<dim>1</dim>
					<dim>3</dim>
					<dim>3</dim>
				</port>
			</output>
		</layer>
		<layer id="397" name="Convert_943586" type="Convert" version="opset1">
			<data destination_type="f32" />
			<input>
				<port id="0" precision="I8">
					<dim>144</dim>
					<dim>1</dim>
					<dim>1</dim>
					<dim>3</dim>
					<dim>3</dim>
				</port>
			</input>
			<output>
				<port id="1" precision="FP32">
					<dim>144</dim>
					<dim>1</dim>
					<dim>1</dim>
					<dim>3</dim>
					<dim>3</dim>
				</port>
			</output>
		</layer>
		<layer id="398" name="Constant_943484" type="Const" version="opset1">
			<data element_type="f32" shape="144, 1, 1, 1, 1" offset="24048" size="576" />
			<output>
				<port id="0" precision="FP32">
					<dim>144</dim>
					<dim>1</dim>
					<dim>1</dim>
					<dim>1</dim>
					<dim>1</dim>
				</port>
			</output>
		</layer>
		<layer id="399" name="/backbone/stage2/unit2/conv2/conv/Conv/WithoutBiases/fq_weights_1" type="Multiply" version="opset1">
			<data auto_broadcast="numpy" />
			<input>
				<port id="0" precision="FP32">
					<dim>144</dim>
					<dim>1</dim>
					<dim>1</dim>
					<dim>3</dim>
					<dim>3</dim>
				</port>
				<port id="1" precision="FP32">
					<dim>144</dim>
					<dim>1</dim>
					<dim>1</dim>
					<dim>1</dim>
					<dim>1</dim>
				</port>
			</input>
			<output>
				<port id="2" precision="FP32">
					<dim>144</dim>
					<dim>1</dim>
					<dim>1</dim>
					<dim>3</dim>
					<dim>3</dim>
				</port>
			</output>
		</layer>
		<layer id="400" name="/backbone/stage2/unit2/conv2/conv/Conv/WithoutBiases" type="GroupConvolution" version="opset1">
			<data strides="1, 1" pads_begin="0, 0" pads_end="0, 0" dilations="1, 1" auto_pad="explicit" />
			<input>
				<port id="0" precision="FP32">
					<dim>-1</dim>
					<dim>144</dim>
					<dim>130</dim>
					<dim>130</dim>
				</port>
				<port id="1" precision="FP32">
					<dim>144</dim>
					<dim>1</dim>
					<dim>1</dim>
					<dim>3</dim>
					<dim>3</dim>
				</port>
			</input>
			<output>
				<port id="2" precision="FP32">
					<dim>-1</dim>
					<dim>144</dim>
					<dim>128</dim>
					<dim>128</dim>
				</port>
			</output>
		</layer>
		<layer id="401" name="Reshape_1804" type="Const" version="opset1">
			<data element_type="f32" shape="1, 144, 1, 1" offset="24624" size="576" />
			<output>
				<port id="0" precision="FP32">
					<dim>1</dim>
					<dim>144</dim>
					<dim>1</dim>
					<dim>1</dim>
				</port>
			</output>
		</layer>
		<layer id="402" name="/backbone/stage2/unit2/conv2/conv/Conv" type="Add" version="opset1">
			<data auto_broadcast="numpy" />
			<input>
				<port id="0" precision="FP32">
					<dim>-1</dim>
					<dim>144</dim>
					<dim>128</dim>
					<dim>128</dim>
				</port>
				<port id="1" precision="FP32">
					<dim>1</dim>
					<dim>144</dim>
					<dim>1</dim>
					<dim>1</dim>
				</port>
			</input>
			<output>
				<port id="2" precision="FP32" names="/backbone/stage2/unit2/conv2/conv/Conv_output_0">
					<dim>-1</dim>
					<dim>144</dim>
					<dim>128</dim>
					<dim>128</dim>
				</port>
			</output>
		</layer>
…
		<edge from-layer="3869" from-port="1" to-layer="3871" to-port="0" />
		<edge from-layer="3870" from-port="0" to-layer="3871" to-port="1" />
		<edge from-layer="3871" from-port="2" to-layer="3872" to-port="1" />
		<edge from-layer="3872" from-port="2" to-layer="3874" to-port="0" />
		<edge from-layer="3873" from-port="0" to-layer="3874" to-port="1" />
		<edge from-layer="3874" from-port="2" to-layer="3875" to-port="0" />
		<edge from-layer="3875" from-port="1" to-layer="3880" to-port="0" />
		<edge from-layer="3876" from-port="0" to-layer="3880" to-port="1" />
		<edge from-layer="3877" from-port="0" to-layer="3880" to-port="2" />
		<edge from-layer="3878" from-port="0" to-layer="3880" to-port="3" />
		<edge from-layer="3879" from-port="0" to-layer="3880" to-port="4" />
		<edge from-layer="3880" from-port="5" to-layer="3885" to-port="0" />
		<edge from-layer="3881" from-port="0" to-layer="3882" to-port="0" />
		<edge from-layer="3882" from-port="1" to-layer="3884" to-port="0" />
		<edge from-layer="3883" from-port="0" to-layer="3884" to-port="1" />
		<edge from-layer="3884" from-port="2" to-layer="3885" to-port="1" />
		<edge from-layer="3885" from-port="2" to-layer="3887" to-port="0" />
		<edge from-layer="3886" from-port="0" to-layer="3887" to-port="1" />
		<edge from-layer="3887" from-port="2" to-layer="3888" to-port="0" />
		<edge from-layer="3888" from-port="1" to-layer="3893" to-port="0" />
		<edge from-layer="3889" from-port="0" to-layer="3893" to-port="1" />
		<edge from-layer="3890" from-port="0" to-layer="3893" to-port="2" />
		<edge from-layer="3891" from-port="0" to-layer="3893" to-port="3" />
		<edge from-layer="3892" from-port="0" to-layer="3893" to-port="4" />
		<edge from-layer="3893" from-port="5" to-layer="3898" to-port="0" />
		<edge from-layer="3893" from-port="5" to-layer="3983" to-port="0" />
		<edge from-layer="3894" from-port="0" to-layer="3895" to-port="0" />
		<edge from-layer="3895" from-port="1" to-layer="3897" to-port="0" />
		<edge from-layer="3896" from-port="0" to-layer="3897" to-port="1" />
		<edge from-layer="3897" from-port="2" to-layer="3898" to-port="1" />
		<edge from-layer="3898" from-port="2" to-layer="3900" to-port="0" />
		<edge from-layer="3899" from-port="0" to-layer="3900" to-port="1" />
		<edge from-layer="3900" from-port="2" to-layer="3906" to-port="0" />
		<edge from-layer="3901" from-port="0" to-layer="3902" to-port="1" />
		<edge from-layer="3902" from-port="3" to-layer="3905" to-port="0" />
		<edge from-layer="3903" from-port="0" to-layer="3905" to-port="1" />
		<edge from-layer="3904" from-port="0" to-layer="3905" to-port="2" />
		<edge from-layer="3905" from-port="3" to-layer="3906" to-port="1" />
		<edge from-layer="3906" from-port="2" to-layer="3965" to-port="0" />
		<edge from-layer="3906" from-port="2" to-layer="3908" to-port="0" />
		<edge from-layer="3907" from-port="0" to-layer="3908" to-port="1" />
		<edge from-layer="3908" from-port="2" to-layer="3910" to-port="0" />
		<edge from-layer="3909" from-port="0" to-layer="3910" to-port="1" />
		<edge from-layer="3910" from-port="2" to-layer="3920" to-port="0" />
		<edge from-layer="3910" from-port="2" to-layer="3914" to-port="0" />
		<edge from-layer="3911" from-port="0" to-layer="3914" to-port="1" />
		<edge from-layer="3912" from-port="0" to-layer="3914" to-port="2" />
		<edge from-layer="3913" from-port="0" to-layer="3914" to-port="3" />
		<edge from-layer="3914" from-port="4" to-layer="3915" to-port="1" />
		<edge from-layer="3915" from-port="2" to-layer="3916" to-port="1" />
		<edge from-layer="3916" from-port="2" to-layer="3926" to-port="0" />
		<edge from-layer="3916" from-port="2" to-layer="3945" to-port="0" />
		<edge from-layer="3917" from-port="0" to-layer="3920" to-port="1" />
		<edge from-layer="3918" from-port="0" to-layer="3920" to-port="2" />
		<edge from-layer="3919" from-port="0" to-layer="3920" to-port="3" />
		<edge from-layer="3920" from-port="4" to-layer="3921" to-port="0" />
		<edge from-layer="3921" from-port="1" to-layer="3922" to-port="0" />
		<edge from-layer="3922" from-port="1" to-layer="3923" to-port="1" />
		<edge from-layer="3923" from-port="2" to-layer="3925" to-port="0" />
		<edge from-layer="3924" from-port="0" to-layer="3925" to-port="1" />
		<edge from-layer="3925" from-port="2" to-layer="3926" to-port="1" />
		<edge from-layer="3925" from-port="2" to-layer="3945" to-port="1" />
		<edge from-layer="3926" from-port="2" to-layer="3928" to-port="0" />
		<edge from-layer="3926" from-port="2" to-layer="3937" to-port="0" />
		<edge from-layer="3927" from-port="0" to-layer="3928" to-port="2" />
		<edge from-layer="3928" from-port="3" to-layer="3930" to-port="0" />
		<edge from-layer="3929" from-port="1" to-layer="3930" to-port="1" />
		<edge from-layer="3930" from-port="2" to-layer="3931" to-port="0" />
		<edge from-layer="3931" from-port="1" to-layer="3933" to-port="0" />
		<edge from-layer="3932" from-port="1" to-layer="3933" to-port="1" />
		<edge from-layer="3933" from-port="2" to-layer="3935" to-port="0" />
		<edge from-layer="3934" from-port="0" to-layer="3935" to-port="1" />
		<edge from-layer="3935" from-port="2" to-layer="3964" to-port="0" />
		<edge from-layer="3936" from-port="0" to-layer="3937" to-port="2" />
		<edge from-layer="3937" from-port="3" to-layer="3939" to-port="0" />
		<edge from-layer="3938" from-port="1" to-layer="3939" to-port="1" />
		<edge from-layer="3939" from-port="2" to-layer="3940" to-port="0" />
		<edge from-layer="3940" from-port="1" to-layer="3942" to-port="0" />
		<edge from-layer="3941" from-port="1" to-layer="3942" to-port="1" />
		<edge from-layer="3942" from-port="2" to-layer="3944" to-port="0" />
		<edge from-layer="3943" from-port="0" to-layer="3944" to-port="1" />
		<edge from-layer="3944" from-port="2" to-layer="3964" to-port="1" />
		<edge from-layer="3945" from-port="2" to-layer="3956" to-port="0" />
		<edge from-layer="3945" from-port="2" to-layer="3947" to-port="0" />
		<edge from-layer="3946" from-port="0" to-layer="3947" to-port="2" />
		<edge from-layer="3947" from-port="3" to-layer="3949" to-port="0" />
		<edge from-layer="3948" from-port="1" to-layer="3949" to-port="1" />
		<edge from-layer="3949" from-port="2" to-layer="3950" to-port="0" />
		<edge from-layer="3950" from-port="1" to-layer="3952" to-port="0" />
		<edge from-layer="3951" from-port="1" to-layer="3952" to-port="1" />
		<edge from-layer="3952" from-port="2" to-layer="3954" to-port="0" />
		<edge from-layer="3953" from-port="0" to-layer="3954" to-port="1" />
		<edge from-layer="3954" from-port="2" to-layer="3964" to-port="2" />
		<edge from-layer="3955" from-port="0" to-layer="3956" to-port="2" />
		<edge from-layer="3956" from-port="3" to-layer="3958" to-port="0" />
		<edge from-layer="3957" from-port="1" to-layer="3958" to-port="1" />
		<edge from-layer="3958" from-port="2" to-layer="3959" to-port="0" />
		<edge from-layer="3959" from-port="1" to-layer="3961" to-port="0" />
		<edge from-layer="3960" from-port="1" to-layer="3961" to-port="1" />
		<edge from-layer="3961" from-port="2" to-layer="3963" to-port="0" />
		<edge from-layer="3962" from-port="0" to-layer="3963" to-port="1" />
		<edge from-layer="3963" from-port="2" to-layer="3964" to-port="3" />
		<edge from-layer="3964" from-port="4" to-layer="3966" to-port="0" />
		<edge from-layer="3965" from-port="1" to-layer="3966" to-port="1" />
		<edge from-layer="3966" from-port="2" to-layer="3968" to-port="0" />
		<edge from-layer="3967" from-port="0" to-layer="3968" to-port="1" />
		<edge from-layer="3968" from-port="2" to-layer="3978" to-port="0" />
		<edge from-layer="3968" from-port="2" to-layer="3969" to-port="0" />
		<edge from-layer="3969" from-port="1" to-layer="3973" to-port="0" />
		<edge from-layer="3969" from-port="1" to-layer="4020" to-port="0" />
		<edge from-layer="3969" from-port="1" to-layer="4012" to-port="0" />
		<edge from-layer="3969" from-port="1" to-layer="4005" to-port="0" />
		<edge from-layer="3970" from-port="0" to-layer="3973" to-port="1" />
		<edge from-layer="3971" from-port="0" to-layer="3973" to-port="2" />
		<edge from-layer="3972" from-port="0" to-layer="3973" to-port="3" />
		<edge from-layer="3973" from-port="4" to-layer="3975" to-port="0" />
		<edge from-layer="3974" from-port="0" to-layer="3975" to-port="1" />
		<edge from-layer="3975" from-port="2" to-layer="3977" to-port="0" />
		<edge from-layer="3976" from-port="0" to-layer="3977" to-port="1" />
		<edge from-layer="3977" from-port="2" to-layer="3978" to-port="1" />
		<edge from-layer="3978" from-port="2" to-layer="4016" to-port="0" />
		<edge from-layer="3979" from-port="0" to-layer="3980" to-port="0" />
		<edge from-layer="3980" from-port="1" to-layer="3982" to-port="0" />
		<edge from-layer="3981" from-port="0" to-layer="3982" to-port="1" />
		<edge from-layer="3982" from-port="2" to-layer="3983" to-port="1" />
		<edge from-layer="3983" from-port="2" to-layer="3985" to-port="0" />
		<edge from-layer="3984" from-port="0" to-layer="3985" to-port="1" />
		<edge from-layer="3985" from-port="2" to-layer="3991" to-port="0" />
		<edge from-layer="3986" from-port="0" to-layer="3987" to-port="1" />
		<edge from-layer="3987" from-port="3" to-layer="3990" to-port="0" />
		<edge from-layer="3988" from-port="0" to-layer="3990" to-port="1" />
		<edge from-layer="3989" from-port="0" to-layer="3990" to-port="2" />
		<edge from-layer="3990" from-port="3" to-layer="3991" to-port="1" />
		<edge from-layer="3991" from-port="2" to-layer="3992" to-port="0" />
		<edge from-layer="3992" from-port="1" to-layer="4026" to-port="0" />
		<edge from-layer="3992" from-port="1" to-layer="3996" to-port="0" />
		<edge from-layer="3993" from-port="0" to-layer="3996" to-port="1" />
		<edge from-layer="3994" from-port="0" to-layer="3996" to-port="2" />
		<edge from-layer="3995" from-port="0" to-layer="3996" to-port="3" />
		<edge from-layer="3996" from-port="4" to-layer="4059" to-port="0" />
		<edge from-layer="3996" from-port="4" to-layer="3998" to-port="0" />
		<edge from-layer="3996" from-port="4" to-layer="4045" to-port="0" />
		<edge from-layer="3996" from-port="4" to-layer="4091" to-port="0" />
		<edge from-layer="3997" from-port="0" to-layer="3998" to-port="1" />
		<edge from-layer="3998" from-port="2" to-layer="4000" to-port="0" />
		<edge from-layer="3999" from-port="0" to-layer="4000" to-port="1" />
		<edge from-layer="4000" from-port="3" to-layer="4001" to-port="0" />
		<edge from-layer="4001" from-port="1" to-layer="4014" to-port="0" />
		<edge from-layer="4002" from-port="0" to-layer="4007" to-port="0" />
		<edge from-layer="4003" from-port="0" to-layer="4005" to-port="1" />
		<edge from-layer="4004" from-port="0" to-layer="4005" to-port="2" />
		<edge from-layer="4005" from-port="3" to-layer="4007" to-port="1" />
		<edge from-layer="4006" from-port="0" to-layer="4007" to-port="2" />
		<edge from-layer="4007" from-port="3" to-layer="4009" to-port="0" />
		<edge from-layer="4008" from-port="0" to-layer="4009" to-port="1" />
		<edge from-layer="4009" from-port="2" to-layer="4013" to-port="0" />
		<edge from-layer="4010" from-port="0" to-layer="4012" to-port="1" />
		<edge from-layer="4011" from-port="0" to-layer="4012" to-port="2" />
		<edge from-layer="4012" from-port="3" to-layer="4013" to-port="1" />
		<edge from-layer="4013" from-port="2" to-layer="4014" to-port="1" />
		<edge from-layer="4014" from-port="2" to-layer="4023" to-port="0" />
		<edge from-layer="4014" from-port="2" to-layer="4016" to-port="1" />
		<edge from-layer="4015" from-port="0" to-layer="4016" to-port="2" />
		<edge from-layer="4016" from-port="3" to-layer="4022" to-port="0" />
		<edge from-layer="4017" from-port="0" to-layer="4021" to-port="0" />
		<edge from-layer="4018" from-port="0" to-layer="4020" to-port="1" />
		<edge from-layer="4019" from-port="0" to-layer="4020" to-port="2" />
		<edge from-layer="4020" from-port="3" to-layer="4021" to-port="1" />
		<edge from-layer="4020" from-port="3" to-layer="4024" to-port="1" />
		<edge from-layer="4021" from-port="2" to-layer="4022" to-port="1" />
		<edge from-layer="4022" from-port="2" to-layer="4025" to-port="0" />
		<edge from-layer="4023" from-port="1" to-layer="4024" to-port="0" />
		<edge from-layer="4024" from-port="2" to-layer="4025" to-port="1" />
		<edge from-layer="4025" from-port="2" to-layer="4033" to-port="0" />
		<edge from-layer="4026" from-port="1" to-layer="4029" to-port="0" />
		<edge from-layer="4027" from-port="0" to-layer="4029" to-port="1" />
		<edge from-layer="4028" from-port="0" to-layer="4029" to-port="2" />
		<edge from-layer="4029" from-port="3" to-layer="4032" to-port="0" />
		<edge from-layer="4030" from-port="0" to-layer="4032" to-port="1" />
		<edge from-layer="4031" from-port="0" to-layer="4032" to-port="2" />
		<edge from-layer="4032" from-port="3" to-layer="4033" to-port="1" />
		<edge from-layer="4033" from-port="2" to-layer="4034" to-port="0" />
		<edge from-layer="4033" from-port="2" to-layer="4043" to-port="0" />
		<edge from-layer="4034" from-port="1" to-layer="4077" to-port="0" />
		<edge from-layer="4034" from-port="1" to-layer="4069" to-port="0" />
		<edge from-layer="4034" from-port="1" to-layer="4038" to-port="0" />
		<edge from-layer="4035" from-port="0" to-layer="4038" to-port="1" />
		<edge from-layer="4036" from-port="0" to-layer="4038" to-port="2" />
		<edge from-layer="4037" from-port="0" to-layer="4038" to-port="3" />
		<edge from-layer="4038" from-port="4" to-layer="4040" to-port="0" />
		<edge from-layer="4039" from-port="0" to-layer="4040" to-port="1" />
		<edge from-layer="4040" from-port="2" to-layer="4042" to-port="0" />
		<edge from-layer="4041" from-port="0" to-layer="4042" to-port="1" />
		<edge from-layer="4042" from-port="2" to-layer="4043" to-port="1" />
		<edge from-layer="4043" from-port="2" to-layer="4073" to-port="0" />
		<edge from-layer="4044" from-port="0" to-layer="4045" to-port="1" />
		<edge from-layer="4045" from-port="2" to-layer="4057" to-port="0" />
		<edge from-layer="4045" from-port="2" to-layer="4047" to-port="0" />
		<edge from-layer="4046" from-port="0" to-layer="4051" to-port="0" />
		<edge from-layer="4047" from-port="1" to-layer="4050" to-port="0" />
		<edge from-layer="4048" from-port="0" to-layer="4050" to-port="1" />
		<edge from-layer="4049" from-port="0" to-layer="4050" to-port="2" />
		<edge from-layer="4050" from-port="3" to-layer="4052" to-port="2" />
		<edge from-layer="4050" from-port="3" to-layer="4051" to-port="1" />
		<edge from-layer="4051" from-port="2" to-layer="4052" to-port="0" />
		<edge from-layer="4052" from-port="3" to-layer="4054" to-port="0" />
		<edge from-layer="4053" from-port="0" to-layer="4054" to-port="1" />
		<edge from-layer="4054" from-port="2" to-layer="4056" to-port="0" />
		<edge from-layer="4055" from-port="0" to-layer="4056" to-port="1" />
		<edge from-layer="4056" from-port="2" to-layer="4057" to-port="1" />
		<edge from-layer="4057" from-port="3" to-layer="4071" to-port="0" />
		<edge from-layer="4057" from-port="3" to-layer="4096" to-port="0" />
		<edge from-layer="4058" from-port="0" to-layer="4064" to-port="0" />
		<edge from-layer="4059" from-port="1" to-layer="4102" to-port="0" />
		<edge from-layer="4059" from-port="1" to-layer="4388" to-port="0" />
		<edge from-layer="4059" from-port="1" to-layer="4094" to-port="0" />
		<edge from-layer="4059" from-port="1" to-layer="4192" to-port="0" />
		<edge from-layer="4059" from-port="1" to-layer="4062" to-port="0" />
		<edge from-layer="4059" from-port="1" to-layer="4086" to-port="0" />
		<edge from-layer="4060" from-port="0" to-layer="4062" to-port="1" />
		<edge from-layer="4061" from-port="0" to-layer="4388" to-port="2" />
		<edge from-layer="4061" from-port="0" to-layer="4062" to-port="2" />
		<edge from-layer="4061" from-port="0" to-layer="4192" to-port="2" />
		<edge from-layer="4062" from-port="3" to-layer="4118" to-port="1" />
		<edge from-layer="4062" from-port="3" to-layer="4235" to-port="1" />
		<edge from-layer="4062" from-port="3" to-layer="4064" to-port="1" />
		<edge from-layer="4063" from-port="0" to-layer="4064" to-port="2" />
		<edge from-layer="4064" from-port="3" to-layer="4066" to-port="0" />
		<edge from-layer="4065" from-port="0" to-layer="4066" to-port="1" />
		<edge from-layer="4066" from-port="2" to-layer="4095" to-port="0" />
		<edge from-layer="4066" from-port="2" to-layer="4070" to-port="0" />
		<edge from-layer="4067" from-port="0" to-layer="4069" to-port="1" />
		<edge from-layer="4068" from-port="0" to-layer="4069" to-port="2" />
		<edge from-layer="4069" from-port="3" to-layer="4070" to-port="1" />
		<edge from-layer="4070" from-port="2" to-layer="4071" to-port="1" />
		<edge from-layer="4071" from-port="2" to-layer="4080" to-port="0" />
		<edge from-layer="4071" from-port="2" to-layer="4073" to-port="1" />
		<edge from-layer="4072" from-port="0" to-layer="4073" to-port="2" />
		<edge from-layer="4073" from-port="3" to-layer="4079" to-port="0" />
		<edge from-layer="4074" from-port="0" to-layer="4078" to-port="0" />
		<edge from-layer="4075" from-port="0" to-layer="4077" to-port="1" />
		<edge from-layer="4076" from-port="0" to-layer="4077" to-port="2" />
		<edge from-layer="4077" from-port="3" to-layer="4078" to-port="1" />
		<edge from-layer="4077" from-port="3" to-layer="4081" to-port="1" />
		<edge from-layer="4078" from-port="2" to-layer="4079" to-port="1" />
		<edge from-layer="4079" from-port="2" to-layer="4082" to-port="0" />
		<edge from-layer="4080" from-port="1" to-layer="4081" to-port="0" />
		<edge from-layer="4081" from-port="2" to-layer="4082" to-port="1" />
		<edge from-layer="4082" from-port="2" to-layer="4113" to-port="0" />
		<edge from-layer="4082" from-port="2" to-layer="4124" to-port="0" />
		<edge from-layer="4082" from-port="2" to-layer="4133" to-port="0" />
		<edge from-layer="4083" from-port="0" to-layer="4086" to-port="1" />
		<edge from-layer="4084" from-port="0" to-layer="4086" to-port="2" />
		<edge from-layer="4085" from-port="0" to-layer="4086" to-port="3" />
		<edge from-layer="4086" from-port="4" to-layer="4088" to-port="0" />
		<edge from-layer="4087" from-port="0" to-layer="4088" to-port="1" />
		<edge from-layer="4088" from-port="2" to-layer="4090" to-port="0" />
		<edge from-layer="4089" from-port="0" to-layer="4090" to-port="1" />
		<edge from-layer="4090" from-port="2" to-layer="4091" to-port="1" />
		<edge from-layer="4091" from-port="2" to-layer="4098" to-port="0" />
		<edge from-layer="4092" from-port="0" to-layer="4094" to-port="1" />
		<edge from-layer="4093" from-port="0" to-layer="4094" to-port="2" />
		<edge from-layer="4094" from-port="3" to-layer="4095" to-port="1" />
		<edge from-layer="4095" from-port="2" to-layer="4096" to-port="1" />
		<edge from-layer="4096" from-port="2" to-layer="4098" to-port="1" />
		<edge from-layer="4096" from-port="2" to-layer="4105" to-port="0" />
		<edge from-layer="4097" from-port="0" to-layer="4098" to-port="2" />
		<edge from-layer="4098" from-port="3" to-layer="4104" to-port="0" />
		<edge from-layer="4099" from-port="0" to-layer="4103" to-port="0" />
		<edge from-layer="4100" from-port="0" to-layer="4102" to-port="1" />
		<edge from-layer="4101" from-port="0" to-layer="4102" to-port="2" />
		<edge from-layer="4102" from-port="3" to-layer="4106" to-port="1" />
		<edge from-layer="4102" from-port="3" to-layer="4103" to-port="1" />
		<edge from-layer="4103" from-port="2" to-layer="4104" to-port="1" />
		<edge from-layer="4104" from-port="2" to-layer="4107" to-port="0" />
		<edge from-layer="4105" from-port="1" to-layer="4106" to-port="0" />
		<edge from-layer="4106" from-port="2" to-layer="4107" to-port="1" />
		<edge from-layer="4107" from-port="2" to-layer="4153" to-port="0" />
		<edge from-layer="4107" from-port="2" to-layer="4109" to-port="0" />
		<edge from-layer="4108" from-port="0" to-layer="4109" to-port="1" />
		<edge from-layer="4109" from-port="2" to-layer="4113" to-port="1" />
		<edge from-layer="4109" from-port="2" to-layer="4166" to-port="0" />
		<edge from-layer="4110" from-port="0" to-layer="4113" to-port="2" />
		<edge from-layer="4111" from-port="0" to-layer="4113" to-port="3" />
		<edge from-layer="4112" from-port="0" to-layer="4113" to-port="4" />
		<edge from-layer="4113" from-port="5" to-layer="4165" to-port="0" />
		<edge from-layer="4113" from-port="5" to-layer="4115" to-port="0" />
		<edge from-layer="4113" from-port="5" to-layer="4135" to-port="0" />
		<edge from-layer="4114" from-port="0" to-layer="4115" to-port="2" />
		<edge from-layer="4115" from-port="3" to-layer="4121" to-port="0" />
		<edge from-layer="4115" from-port="3" to-layer="4139" to-port="0" />
		<edge from-layer="4115" from-port="3" to-layer="4176" to-port="0" />
		<edge from-layer="4116" from-port="0" to-layer="4118" to-port="0" />
		<edge from-layer="4117" from-port="0" to-layer="4118" to-port="2" />
		<edge from-layer="4118" from-port="3" to-layer="4120" to-port="0" />
		<edge from-layer="4119" from-port="0" to-layer="4120" to-port="1" />
		<edge from-layer="4120" from-port="2" to-layer="4121" to-port="1" />
		<edge from-layer="4121" from-port="2" to-layer="4393" to-port="0" />
		<edge from-layer="4121" from-port="2" to-layer="4123" to-port="0" />
		<edge from-layer="4122" from-port="0" to-layer="4123" to-port="1" />
		<edge from-layer="4123" from-port="2" to-layer="4198" to-port="0" />
		<edge from-layer="4124" from-port="1" to-layer="4138" to-port="0" />
		<edge from-layer="4124" from-port="1" to-layer="4146" to-port="0" />
		<edge from-layer="4124" from-port="1" to-layer="4128" to-port="0" />
		<edge from-layer="4125" from-port="0" to-layer="4128" to-port="1" />
		<edge from-layer="4126" from-port="0" to-layer="4128" to-port="2" />
		<edge from-layer="4127" from-port="0" to-layer="4128" to-port="3" />
		<edge from-layer="4128" from-port="4" to-layer="4130" to-port="0" />
		<edge from-layer="4129" from-port="0" to-layer="4130" to-port="1" />
		<edge from-layer="4130" from-port="2" to-layer="4132" to-port="0" />
		<edge from-layer="4131" from-port="0" to-layer="4132" to-port="1" />
		<edge from-layer="4132" from-port="2" to-layer="4133" to-port="1" />
		<edge from-layer="4133" from-port="2" to-layer="4142" to-port="0" />
		<edge from-layer="4134" from-port="0" to-layer="4135" to-port="2" />
		<edge from-layer="4135" from-port="3" to-layer="4171" to-port="0" />
		<edge from-layer="4135" from-port="3" to-layer="4140" to-port="0" />
		<edge from-layer="4136" from-port="0" to-layer="4138" to-port="1" />
		<edge from-layer="4137" from-port="0" to-layer="4138" to-port="2" />
		<edge from-layer="4138" from-port="3" to-layer="4139" to-port="1" />
		<edge from-layer="4139" from-port="2" to-layer="4140" to-port="1" />
		<edge from-layer="4140" from-port="2" to-layer="4149" to-port="0" />
		<edge from-layer="4140" from-port="2" to-layer="4142" to-port="1" />
		<edge from-layer="4141" from-port="0" to-layer="4142" to-port="2" />
		<edge from-layer="4142" from-port="3" to-layer="4148" to-port="0" />
		<edge from-layer="4143" from-port="0" to-layer="4147" to-port="0" />
		<edge from-layer="4144" from-port="0" to-layer="4146" to-port="1" />
		<edge from-layer="4145" from-port="0" to-layer="4146" to-port="2" />
		<edge from-layer="4146" from-port="3" to-layer="4147" to-port="1" />
		<edge from-layer="4146" from-port="3" to-layer="4150" to-port="1" />
		<edge from-layer="4147" from-port="2" to-layer="4148" to-port="1" />
		<edge from-layer="4148" from-port="2" to-layer="4151" to-port="0" />
		<edge from-layer="4149" from-port="1" to-layer="4150" to-port="0" />
		<edge from-layer="4150" from-port="2" to-layer="4151" to-port="1" />
		<edge from-layer="4151" from-port="2" to-layer="4186" to-port="0" />
		<edge from-layer="4152" from-port="0" to-layer="4153" to-port="1" />
		<edge from-layer="4153" from-port="2" to-layer="4163" to-port="0" />
		<edge from-layer="4153" from-port="2" to-layer="4154" to-port="0" />
		<edge from-layer="4154" from-port="1" to-layer="4158" to-port="0" />
		<edge from-layer="4155" from-port="0" to-layer="4158" to-port="1" />
		<edge from-layer="4156" from-port="0" to-layer="4158" to-port="2" />
		<edge from-layer="4157" from-port="0" to-layer="4158" to-port="3" />
		<edge from-layer="4158" from-port="4" to-layer="4160" to-port="0" />
		<edge from-layer="4159" from-port="0" to-layer="4160" to-port="1" />
		<edge from-layer="4160" from-port="2" to-layer="4162" to-port="0" />
		<edge from-layer="4161" from-port="0" to-layer="4162" to-port="1" />
		<edge from-layer="4162" from-port="2" to-layer="4163" to-port="1" />
		<edge from-layer="4163" from-port="2" to-layer="4179" to-port="0" />
		<edge from-layer="4164" from-port="0" to-layer="4165" to-port="2" />
		<edge from-layer="4165" from-port="3" to-layer="4170" to-port="0" />
		<edge from-layer="4165" from-port="3" to-layer="4384" to-port="0" />
		<edge from-layer="4166" from-port="1" to-layer="4174" to-port="0" />
		<edge from-layer="4166" from-port="1" to-layer="4169" to-port="0" />
		<edge from-layer="4167" from-port="0" to-layer="4169" to-port="1" />
		<edge from-layer="4168" from-port="0" to-layer="4169" to-port="2" />
		<edge from-layer="4169" from-port="3" to-layer="4175" to-port="0" />
		<edge from-layer="4169" from-port="3" to-layer="4170" to-port="1" />
		<edge from-layer="4170" from-port="2" to-layer="4171" to-port="1" />
		<edge from-layer="4171" from-port="2" to-layer="4177" to-port="0" />
		<edge from-layer="4172" from-port="0" to-layer="4174" to-port="1" />
		<edge from-layer="4173" from-port="0" to-layer="4174" to-port="2" />
		<edge from-layer="4174" from-port="3" to-layer="4175" to-port="1" />
		<edge from-layer="4175" from-port="2" to-layer="4176" to-port="1" />
		<edge from-layer="4176" from-port="2" to-layer="4177" to-port="1" />
		<edge from-layer="4177" from-port="2" to-layer="4182" to-port="0" />
		<edge from-layer="4177" from-port="2" to-layer="4179" to-port="1" />
		<edge from-layer="4178" from-port="0" to-layer="4179" to-port="2" />
		<edge from-layer="4179" from-port="3" to-layer="4181" to-port="0" />
		<edge from-layer="4180" from-port="0" to-layer="4181" to-port="1" />
		<edge from-layer="4181" from-port="2" to-layer="4183" to-port="0" />
		<edge from-layer="4182" from-port="1" to-layer="4183" to-port="1" />
		<edge from-layer="4183" from-port="2" to-layer="4185" to-port="0" />
		<edge from-layer="4184" from-port="0" to-layer="4185" to-port="1" />
		<edge from-layer="4185" from-port="2" to-layer="4186" to-port="1" />
		<edge from-layer="4186" from-port="2" to-layer="4188" to-port="0" />
		<edge from-layer="4187" from-port="0" to-layer="4188" to-port="1" />
		<edge from-layer="4188" from-port="2" to-layer="4190" to-port="0" />
		<edge from-layer="4189" from-port="0" to-layer="4190" to-port="1" />
		<edge from-layer="4190" from-port="2" to-layer="4196" to-port="0" />
		<edge from-layer="4191" from-port="0" to-layer="4192" to-port="1" />
		<edge from-layer="4192" from-port="3" to-layer="4195" to-port="0" />
		<edge from-layer="4193" from-port="0" to-layer="4195" to-port="1" />
		<edge from-layer="4194" from-port="0" to-layer="4195" to-port="2" />
		<edge from-layer="4195" from-port="3" to-layer="4196" to-port="1" />
		<edge from-layer="4196" from-port="2" to-layer="4198" to-port="1" />
		<edge from-layer="4197" from-port="0" to-layer="4198" to-port="2" />
		<edge from-layer="4198" from-port="3" to-layer="4208" to-port="0" />
		<edge from-layer="4198" from-port="3" to-layer="4200" to-port="0" />
		<edge from-layer="4199" from-port="0" to-layer="4207" to-port="0" />
		<edge from-layer="4200" from-port="1" to-layer="4396" to-port="0" />
		<edge from-layer="4200" from-port="1" to-layer="4203" to-port="0" />
		<edge from-layer="4201" from-port="0" to-layer="4203" to-port="1" />
		<edge from-layer="4202" from-port="0" to-layer="4396" to-port="2" />
		<edge from-layer="4202" from-port="0" to-layer="4203" to-port="2" />
		<edge from-layer="4203" from-port="3" to-layer="4206" to-port="0" />
		<edge from-layer="4204" from-port="0" to-layer="4206" to-port="1" />
		<edge from-layer="4205" from-port="0" to-layer="4206" to-port="2" />
		<edge from-layer="4206" from-port="3" to-layer="4207" to-port="1" />
		<edge from-layer="4207" from-port="2" to-layer="4208" to-port="1" />
		<edge from-layer="4208" from-port="2" to-layer="4220" to-port="0" />
		<edge from-layer="4208" from-port="2" to-layer="4218" to-port="0" />
		<edge from-layer="4208" from-port="2" to-layer="4209" to-port="0" />
		<edge from-layer="4209" from-port="1" to-layer="4248" to-port="0" />
		<edge from-layer="4209" from-port="1" to-layer="4240" to-port="0" />
		<edge from-layer="4209" from-port="1" to-layer="4213" to-port="0" />
		<edge from-layer="4210" from-port="0" to-layer="4213" to-port="1" />
		<edge from-layer="4211" from-port="0" to-layer="4213" to-port="2" />
		<edge from-layer="4212" from-port="0" to-layer="4213" to-port="3" />
		<edge from-layer="4213" from-port="4" to-layer="4215" to-port="0" />
		<edge from-layer="4214" from-port="0" to-layer="4215" to-port="1" />
		<edge from-layer="4215" from-port="2" to-layer="4217" to-port="0" />
		<edge from-layer="4216" from-port="0" to-layer="4217" to-port="1" />
		<edge from-layer="4217" from-port="2" to-layer="4218" to-port="1" />
		<edge from-layer="4218" from-port="2" to-layer="4244" to-port="0" />
		<edge from-layer="4219" from-port="0" to-layer="4220" to-port="2" />
		<edge from-layer="4220" from-port="3" to-layer="4222" to-port="0" />
		<edge from-layer="4220" from-port="3" to-layer="4232" to-port="0" />
		<edge from-layer="4221" from-port="0" to-layer="4226" to-port="0" />
		<edge from-layer="4222" from-port="1" to-layer="4225" to-port="0" />
		<edge from-layer="4223" from-port="0" to-layer="4225" to-port="1" />
		<edge from-layer="4224" from-port="0" to-layer="4225" to-port="2" />
		<edge from-layer="4225" from-port="3" to-layer="4226" to-port="1" />
		<edge from-layer="4225" from-port="3" to-layer="4227" to-port="2" />
		<edge from-layer="4226" from-port="2" to-layer="4227" to-port="0" />
		<edge from-layer="4227" from-port="3" to-layer="4229" to-port="0" />
		<edge from-layer="4228" from-port="0" to-layer="4229" to-port="1" />
		<edge from-layer="4229" from-port="2" to-layer="4231" to-port="0" />
		<edge from-layer="4230" from-port="0" to-layer="4231" to-port="1" />
		<edge from-layer="4231" from-port="2" to-layer="4232" to-port="1" />
		<edge from-layer="4232" from-port="3" to-layer="4242" to-port="0" />
		<edge from-layer="4232" from-port="3" to-layer="4415" to-port="0" />
		<edge from-layer="4233" from-port="0" to-layer="4235" to-port="0" />
		<edge from-layer="4234" from-port="0" to-layer="4235" to-port="2" />
		<edge from-layer="4235" from-port="3" to-layer="4237" to-port="0" />
		<edge from-layer="4236" from-port="0" to-layer="4237" to-port="1" />
		<edge from-layer="4237" from-port="2" to-layer="4241" to-port="0" />
		<edge from-layer="4237" from-port="2" to-layer="4414" to-port="0" />
		<edge from-layer="4238" from-port="0" to-layer="4240" to-port="1" />
		<edge from-layer="4239" from-port="0" to-layer="4240" to-port="2" />
		<edge from-layer="4240" from-port="3" to-layer="4241" to-port="1" />
		<edge from-layer="4241" from-port="2" to-layer="4242" to-port="1" />
		<edge from-layer="4242" from-port="2" to-layer="4244" to-port="1" />
		<edge from-layer="4242" from-port="2" to-layer="4251" to-port="0" />
		<edge from-layer="4243" from-port="0" to-layer="4244" to-port="2" />
		<edge from-layer="4244" from-port="3" to-layer="4250" to-port="0" />
		<edge from-layer="4245" from-port="0" to-layer="4249" to-port="0" />
		<edge from-layer="4246" from-port="0" to-layer="4248" to-port="1" />
		<edge from-layer="4247" from-port="0" to-layer="4248" to-port="2" />
		<edge from-layer="4248" from-port="3" to-layer="4252" to-port="1" />
		<edge from-layer="4248" from-port="3" to-layer="4249" to-port="1" />
		<edge from-layer="4249" from-port="2" to-layer="4250" to-port="1" />
		<edge from-layer="4250" from-port="2" to-layer="4253" to-port="0" />
		<edge from-layer="4251" from-port="1" to-layer="4252" to-port="0" />
		<edge from-layer="4252" from-port="2" to-layer="4253" to-port="1" />
		<edge from-layer="4253" from-port="2" to-layer="4255" to-port="0" />
		<edge from-layer="4253" from-port="2" to-layer="4265" to-port="0" />
		<edge from-layer="4254" from-port="0" to-layer="4264" to-port="0" />
		<edge from-layer="4255" from-port="1" to-layer="4262" to-port="0" />
		<edge from-layer="4255" from-port="1" to-layer="4258" to-port="0" />
		<edge from-layer="4256" from-port="0" to-layer="4258" to-port="1" />
		<edge from-layer="4257" from-port="0" to-layer="4258" to-port="2" />
		<edge from-layer="4258" from-port="3" to-layer="4263" to-port="0" />
		<edge from-layer="4259" from-port="0" to-layer="4263" to-port="1" />
		<edge from-layer="4260" from-port="0" to-layer="4262" to-port="1" />
		<edge from-layer="4261" from-port="0" to-layer="4262" to-port="2" />
		<edge from-layer="4262" from-port="3" to-layer="4263" to-port="2" />
		<edge from-layer="4263" from-port="3" to-layer="4264" to-port="1" />
		<edge from-layer="4264" from-port="2" to-layer="4265" to-port="1" />
		<edge from-layer="4265" from-port="2" to-layer="4460" to-port="0" />
		<edge from-layer="4265" from-port="2" to-layer="4472" to-port="0" />
		<edge from-layer="4265" from-port="2" to-layer="4269" to-port="0" />
		<edge from-layer="4266" from-port="0" to-layer="4269" to-port="1" />
		<edge from-layer="4267" from-port="0" to-layer="4269" to-port="2" />
		<edge from-layer="4268" from-port="0" to-layer="4269" to-port="3" />
		<edge from-layer="4269" from-port="4" to-layer="4287" to-port="1" />
		<edge from-layer="4269" from-port="4" to-layer="4270" to-port="0" />
		<edge from-layer="4270" from-port="1" to-layer="4282" to-port="0" />
		<edge from-layer="4270" from-port="1" to-layer="4466" to-port="0" />
		<edge from-layer="4270" from-port="1" to-layer="4273" to-port="0" />
		<edge from-layer="4271" from-port="0" to-layer="4273" to-port="1" />
		<edge from-layer="4272" from-port="0" to-layer="4273" to-port="2" />
		<edge from-layer="4273" from-port="3" to-layer="4275" to-port="1" />
		<edge from-layer="4274" from-port="0" to-layer="4275" to-port="2" />
		<edge from-layer="4275" from-port="3" to-layer="4276" to-port="0" />
		<edge from-layer="4276" from-port="1" to-layer="4278" to-port="0" />
		<edge from-layer="4277" from-port="0" to-layer="4278" to-port="1" />
		<edge from-layer="4278" from-port="2" to-layer="4286" to-port="0" />
		<edge from-layer="4279" from-port="0" to-layer="4283" to-port="0" />
		<edge from-layer="4280" from-port="0" to-layer="4282" to-port="1" />
		<edge from-layer="4281" from-port="0" to-layer="4282" to-port="2" />
		<edge from-layer="4282" from-port="3" to-layer="4283" to-port="1" />
		<edge from-layer="4283" from-port="2" to-layer="4285" to-port="0" />
		<edge from-layer="4284" from-port="0" to-layer="4285" to-port="1" />
		<edge from-layer="4285" from-port="2" to-layer="4286" to-port="1" />
		<edge from-layer="4286" from-port="2" to-layer="4287" to-port="0" />
		<edge from-layer="4287" from-port="2" to-layer="4289" to-port="0" />
		<edge from-layer="4288" from-port="0" to-layer="4289" to-port="1" />
		<edge from-layer="4289" from-port="2" to-layer="4293" to-port="0" />
		<edge from-layer="4290" from-port="0" to-layer="4293" to-port="1" />
		<edge from-layer="4291" from-port="0" to-layer="4293" to-port="2" />
		<edge from-layer="4292" from-port="0" to-layer="4293" to-port="3" />
		<edge from-layer="4293" from-port="4" to-layer="4294" to-port="0" />
		<edge from-layer="4294" from-port="5" to-layer="4299" to-port="0" />
		<edge from-layer="4295" from-port="0" to-layer="4299" to-port="1" />
		<edge from-layer="4296" from-port="0" to-layer="4299" to-port="2" />
		<edge from-layer="4297" from-port="0" to-layer="4299" to-port="3" />
		<edge from-layer="4298" from-port="0" to-layer="4299" to-port="4" />
		<edge from-layer="4299" from-port="5" to-layer="4304" to-port="0" />
		<edge from-layer="4300" from-port="0" to-layer="4301" to-port="0" />
		<edge from-layer="4301" from-port="1" to-layer="4303" to-port="0" />
		<edge from-layer="4302" from-port="0" to-layer="4303" to-port="1" />
		<edge from-layer="4303" from-port="2" to-layer="4304" to-port="1" />
		<edge from-layer="4304" from-port="2" to-layer="4306" to-port="0" />
		<edge from-layer="4305" from-port="0" to-layer="4306" to-port="1" />
		<edge from-layer="4306" from-port="2" to-layer="4307" to-port="0" />
		<edge from-layer="4307" from-port="1" to-layer="4312" to-port="0" />
		<edge from-layer="4308" from-port="0" to-layer="4312" to-port="1" />
		<edge from-layer="4309" from-port="0" to-layer="4312" to-port="2" />
		<edge from-layer="4310" from-port="0" to-layer="4312" to-port="3" />
		<edge from-layer="4311" from-port="0" to-layer="4312" to-port="4" />
		<edge from-layer="4312" from-port="5" to-layer="4317" to-port="0" />
		<edge from-layer="4313" from-port="0" to-layer="4314" to-port="0" />
		<edge from-layer="4314" from-port="1" to-layer="4316" to-port="0" />
		<edge from-layer="4315" from-port="0" to-layer="4316" to-port="1" />
		<edge from-layer="4316" from-port="2" to-layer="4317" to-port="1" />
		<edge from-layer="4317" from-port="2" to-layer="4319" to-port="0" />
		<edge from-layer="4318" from-port="0" to-layer="4319" to-port="1" />
		<edge from-layer="4319" from-port="2" to-layer="4320" to-port="0" />
		<edge from-layer="4320" from-port="1" to-layer="4325" to-port="0" />
		<edge from-layer="4321" from-port="0" to-layer="4325" to-port="1" />
		<edge from-layer="4322" from-port="0" to-layer="4325" to-port="2" />
		<edge from-layer="4323" from-port="0" to-layer="4325" to-port="3" />
		<edge from-layer="4324" from-port="0" to-layer="4325" to-port="4" />
		<edge from-layer="4325" from-port="5" to-layer="4330" to-port="0" />
		<edge from-layer="4326" from-port="0" to-layer="4327" to-port="0" />
		<edge from-layer="4327" from-port="1" to-layer="4329" to-port="0" />
		<edge from-layer="4328" from-port="0" to-layer="4329" to-port="1" />
		<edge from-layer="4329" from-port="2" to-layer="4330" to-port="1" />
		<edge from-layer="4330" from-port="2" to-layer="4332" to-port="0" />
		<edge from-layer="4331" from-port="0" to-layer="4332" to-port="1" />
		<edge from-layer="4332" from-port="2" to-layer="4333" to-port="0" />
		<edge from-layer="4333" from-port="1" to-layer="4338" to-port="0" />
		<edge from-layer="4334" from-port="0" to-layer="4338" to-port="1" />
		<edge from-layer="4335" from-port="0" to-layer="4338" to-port="2" />
		<edge from-layer="4336" from-port="0" to-layer="4338" to-port="3" />
		<edge from-layer="4337" from-port="0" to-layer="4338" to-port="4" />
		<edge from-layer="4338" from-port="5" to-layer="4343" to-port="0" />
		<edge from-layer="4339" from-port="0" to-layer="4340" to-port="0" />
		<edge from-layer="4340" from-port="1" to-layer="4342" to-port="0" />
		<edge from-layer="4341" from-port="0" to-layer="4342" to-port="1" />
		<edge from-layer="4342" from-port="2" to-layer="4343" to-port="1" />
		<edge from-layer="4343" from-port="2" to-layer="4345" to-port="0" />
		<edge from-layer="4344" from-port="0" to-layer="4345" to-port="1" />
		<edge from-layer="4345" from-port="2" to-layer="4346" to-port="0" />
		<edge from-layer="4346" from-port="1" to-layer="4351" to-port="0" />
		<edge from-layer="4347" from-port="0" to-layer="4351" to-port="1" />
		<edge from-layer="4348" from-port="0" to-layer="4351" to-port="2" />
		<edge from-layer="4349" from-port="0" to-layer="4351" to-port="3" />
		<edge from-layer="4350" from-port="0" to-layer="4351" to-port="4" />
		<edge from-layer="4351" from-port="5" to-layer="4356" to-port="0" />
		<edge from-layer="4352" from-port="0" to-layer="4353" to-port="0" />
		<edge from-layer="4353" from-port="1" to-layer="4355" to-port="0" />
		<edge from-layer="4354" from-port="0" to-layer="4355" to-port="1" />
		<edge from-layer="4355" from-port="2" to-layer="4356" to-port="1" />
		<edge from-layer="4356" from-port="2" to-layer="4358" to-port="0" />
		<edge from-layer="4357" from-port="0" to-layer="4358" to-port="1" />
		<edge from-layer="4358" from-port="2" to-layer="4359" to-port="0" />
		<edge from-layer="4359" from-port="1" to-layer="4364" to-port="0" />
		<edge from-layer="4360" from-port="0" to-layer="4364" to-port="1" />
		<edge from-layer="4361" from-port="0" to-layer="4364" to-port="2" />
		<edge from-layer="4362" from-port="0" to-layer="4364" to-port="3" />
		<edge from-layer="4363" from-port="0" to-layer="4364" to-port="4" />
		<edge from-layer="4364" from-port="5" to-layer="4369" to-port="0" />
		<edge from-layer="4365" from-port="0" to-layer="4366" to-port="0" />
		<edge from-layer="4366" from-port="1" to-layer="4368" to-port="0" />
		<edge from-layer="4367" from-port="0" to-layer="4368" to-port="1" />
		<edge from-layer="4368" from-port="2" to-layer="4369" to-port="1" />
		<edge from-layer="4369" from-port="2" to-layer="4371" to-port="0" />
		<edge from-layer="4370" from-port="0" to-layer="4371" to-port="1" />
		<edge from-layer="4371" from-port="2" to-layer="4372" to-port="0" />
		<edge from-layer="4372" from-port="1" to-layer="4382" to-port="0" />
		<edge from-layer="4372" from-port="1" to-layer="4373" to-port="0" />
		<edge from-layer="4373" from-port="1" to-layer="4377" to-port="0" />
		<edge from-layer="4373" from-port="1" to-layer="4455" to-port="0" />
		<edge from-layer="4373" from-port="1" to-layer="4449" to-port="0" />
		<edge from-layer="4373" from-port="1" to-layer="4436" to-port="0" />
		<edge from-layer="4373" from-port="1" to-layer="4441" to-port="0" />
		<edge from-layer="4374" from-port="0" to-layer="4377" to-port="1" />
		<edge from-layer="4375" from-port="0" to-layer="4377" to-port="2" />
		<edge from-layer="4376" from-port="0" to-layer="4377" to-port="3" />
		<edge from-layer="4377" from-port="4" to-layer="4379" to-port="0" />
		<edge from-layer="4378" from-port="0" to-layer="4379" to-port="1" />
		<edge from-layer="4379" from-port="2" to-layer="4381" to-port="0" />
		<edge from-layer="4380" from-port="0" to-layer="4381" to-port="1" />
		<edge from-layer="4381" from-port="2" to-layer="4382" to-port="1" />
		<edge from-layer="4382" from-port="2" to-layer="4445" to-port="0" />
		<edge from-layer="4383" from-port="0" to-layer="4384" to-port="1" />
		<edge from-layer="4384" from-port="2" to-layer="4386" to-port="0" />
		<edge from-layer="4385" from-port="0" to-layer="4386" to-port="1" />
		<edge from-layer="4386" from-port="2" to-layer="4391" to-port="0" />
		<edge from-layer="4387" from-port="0" to-layer="4388" to-port="1" />
		<edge from-layer="4388" from-port="3" to-layer="4390" to-port="0" />
		<edge from-layer="4389" from-port="0" to-layer="4390" to-port="1" />
		<edge from-layer="4390" from-port="2" to-layer="4391" to-port="1" />
		<edge from-layer="4391" from-port="2" to-layer="4393" to-port="1" />
		<edge from-layer="4392" from-port="0" to-layer="4393" to-port="2" />
		<edge from-layer="4393" from-port="3" to-layer="4400" to-port="0" />
		<edge from-layer="4394" from-port="0" to-layer="4399" to-port="0" />
		<edge from-layer="4395" from-port="0" to-layer="4396" to-port="1" />
		<edge from-layer="4396" from-port="3" to-layer="4398" to-port="0" />
		<edge from-layer="4397" from-port="0" to-layer="4398" to-port="1" />
		<edge from-layer="4398" from-port="2" to-layer="4399" to-port="1" />
		<edge from-layer="4399" from-port="2" to-layer="4400" to-port="1" />
		<edge from-layer="4400" from-port="2" to-layer="4401" to-port="0" />
		<edge from-layer="4400" from-port="2" to-layer="4410" to-port="0" />
		<edge from-layer="4401" from-port="1" to-layer="4405" to-port="0" />
		<edge from-layer="4401" from-port="1" to-layer="4413" to-port="0" />
		<edge from-layer="4402" from-port="0" to-layer="4405" to-port="1" />
		<edge from-layer="4403" from-port="0" to-layer="4405" to-port="2" />
		<edge from-layer="4404" from-port="0" to-layer="4405" to-port="3" />
		<edge from-layer="4405" from-port="4" to-layer="4407" to-port="0" />
		<edge from-layer="4406" from-port="0" to-layer="4407" to-port="1" />
		<edge from-layer="4407" from-port="2" to-layer="4409" to-port="0" />
		<edge from-layer="4408" from-port="0" to-layer="4409" to-port="1" />
		<edge from-layer="4409" from-port="2" to-layer="4410" to-port="1" />
		<edge from-layer="4410" from-port="2" to-layer="4417" to-port="0" />
		<edge from-layer="4411" from-port="0" to-layer="4413" to-port="1" />
		<edge from-layer="4412" from-port="0" to-layer="4413" to-port="2" />
		<edge from-layer="4413" from-port="3" to-layer="4414" to-port="1" />
		<edge from-layer="4414" from-port="2" to-layer="4415" to-port="1" />
		<edge from-layer="4415" from-port="2" to-layer="4417" to-port="1" />
		<edge from-layer="4415" from-port="2" to-layer="4420" to-port="0" />
		<edge from-layer="4416" from-port="0" to-layer="4417" to-port="2" />
		<edge from-layer="4417" from-port="3" to-layer="4419" to-port="0" />
		<edge from-layer="4418" from-port="0" to-layer="4419" to-port="1" />
		<edge from-layer="4419" from-port="2" to-layer="4421" to-port="0" />
		<edge from-layer="4420" from-port="1" to-layer="4421" to-port="1" />
		<edge from-layer="4421" from-port="2" to-layer="4430" to-port="0" />
		<edge from-layer="4421" from-port="2" to-layer="4423" to-port="0" />
		<edge from-layer="4422" from-port="0" to-layer="4429" to-port="0" />
		<edge from-layer="4423" from-port="1" to-layer="4426" to-port="0" />
		<edge from-layer="4424" from-port="0" to-layer="4426" to-port="1" />
		<edge from-layer="4425" from-port="0" to-layer="4426" to-port="2" />
		<edge from-layer="4426" from-port="3" to-layer="4428" to-port="0" />
		<edge from-layer="4427" from-port="0" to-layer="4428" to-port="1" />
		<edge from-layer="4428" from-port="2" to-layer="4429" to-port="1" />
		<edge from-layer="4429" from-port="2" to-layer="4430" to-port="1" />
		<edge from-layer="4430" from-port="2" to-layer="4432" to-port="0" />
		<edge from-layer="4430" from-port="2" to-layer="4471" to-port="0" />
		<edge from-layer="4431" from-port="0" to-layer="4432" to-port="1" />
		<edge from-layer="4432" from-port="2" to-layer="4443" to-port="0" />
		<edge from-layer="4433" from-port="0" to-layer="4438" to-port="0" />
		<edge from-layer="4434" from-port="0" to-layer="4436" to-port="1" />
		<edge from-layer="4435" from-port="0" to-layer="4436" to-port="2" />
		<edge from-layer="4436" from-port="3" to-layer="4438" to-port="1" />
		<edge from-layer="4437" from-port="0" to-layer="4438" to-port="2" />
		<edge from-layer="4438" from-port="3" to-layer="4442" to-port="0" />
		<edge from-layer="4439" from-port="0" to-layer="4441" to-port="1" />
		<edge from-layer="4440" from-port="0" to-layer="4441" to-port="2" />
		<edge from-layer="4441" from-port="3" to-layer="4442" to-port="1" />
		<edge from-layer="4442" from-port="2" to-layer="4443" to-port="1" />
		<edge from-layer="4443" from-port="2" to-layer="4452" to-port="0" />
		<edge from-layer="4443" from-port="2" to-layer="4445" to-port="1" />
		<edge from-layer="4444" from-port="0" to-layer="4445" to-port="2" />
		<edge from-layer="4445" from-port="3" to-layer="4451" to-port="0" />
		<edge from-layer="4446" from-port="0" to-layer="4450" to-port="0" />
		<edge from-layer="4447" from-port="0" to-layer="4449" to-port="1" />
		<edge from-layer="4448" from-port="0" to-layer="4449" to-port="2" />
		<edge from-layer="4449" from-port="3" to-layer="4450" to-port="1" />
		<edge from-layer="4450" from-port="2" to-layer="4451" to-port="1" />
		<edge from-layer="4451" from-port="2" to-layer="4457" to-port="0" />
		<edge from-layer="4452" from-port="1" to-layer="4456" to-port="0" />
		<edge from-layer="4453" from-port="0" to-layer="4455" to-port="1" />
		<edge from-layer="4454" from-port="0" to-layer="4455" to-port="2" />
		<edge from-layer="4455" from-port="3" to-layer="4456" to-port="1" />
		<edge from-layer="4456" from-port="2" to-layer="4457" to-port="1" />
		<edge from-layer="4457" from-port="2" to-layer="4459" to-port="0" />
		<edge from-layer="4458" from-port="0" to-layer="4459" to-port="1" />
		<edge from-layer="4459" from-port="2" to-layer="4469" to-port="0" />
		<edge from-layer="4460" from-port="1" to-layer="4463" to-port="0" />
		<edge from-layer="4461" from-port="0" to-layer="4463" to-port="1" />
		<edge from-layer="4462" from-port="0" to-layer="4463" to-port="2" />
		<edge from-layer="4463" from-port="3" to-layer="4468" to-port="0" />
		<edge from-layer="4464" from-port="0" to-layer="4466" to-port="1" />
		<edge from-layer="4465" from-port="0" to-layer="4466" to-port="2" />
		<edge from-layer="4466" from-port="3" to-layer="4468" to-port="1" />
		<edge from-layer="4467" from-port="0" to-layer="4468" to-port="2" />
		<edge from-layer="4468" from-port="3" to-layer="4469" to-port="1" />
		<edge from-layer="4469" from-port="2" to-layer="4470" to-port="0" />
	</edges>
	<rt_info>
		<MO_version value="2023.0.0-10926-b4452d56304-releases/2023/0" />
		<Runtime_version value="2023.0.0-10926-b4452d56304-releases/2023/0" />
		<conversion_parameters>
			<input value="image" />
			<input_model value="DIR/model_ready.onnx" />
			<input_shape value="[-1, 3, 512, 512]" />
			<is_python_api_used value="False" />
			<mean_values value="[103.53, 116.28, 123.675]" />
			<model_name value="model" />
			<output value="boxes,labels,masks" />
			<output_dir value="DIR" />
			<scale_values value="[1.0, 1.0, 1.0]" />
		</conversion_parameters>
		<legacy_frontend value="False" />
		<model_info>
			<confidence_threshold value="0.9750000000000001" />
			<iou_threshold value="0.5" />
			<label_ids value="None 0 1" />
			<labels value="otx_empty_lbl 1st 2nd" />
			<model_type value="MaskRCNN" />
			<task_type value="instance_segmentation" />
		</model_info>
		<nncf>
			<quantization>
				<advanced_parameters value="{}" />
				<fast_bias_correction value="True" />
				<ignored_scope value="None" />
				<model_type value="None" />
				<preset value="performance" />
				<subset_size value="177" />
				<target_device value="ANY" />
			</quantization>
		</nncf>
	</rt_info>
</net>
